HW1/classification/CNN_fashionMNIST_10_epochs.pt (torch, 108679 bytes, 10 tensors)

weight f4 [3, 1, 6, 6]
00000000: 4aa1 2f3e 5c34 70be 68ab b73e 9436 463e
00000010: a4b4 173d fc64 483e 8a09 943d 5234 00bd
00000020: f597 203e 78e7 2c3e 8014 e33d 13b9 c83d
00000030: c390 93bd 1498 84bd e5ca 9b3e d4e4 843e
00000040: cd9b ba3d 948a a6bb cc1d a3be 1a63 44bd
00000050: dbe9 803e cfa6 8f3e 4a49 4f3e 061a 09bd
00000060: dbc8 6bbe 4735 12be a58e c93d 072c a63e
00000070: eeb4 c7bd a3de 4f3d 7168 b5be 3f25 23be
00000080: 1972 8e3e 1d0b 123e 31ca 003e a2ce 5ebe
00000090: 15ba 45be 6253 70be dbfb 09bd 4042 9bbe
000000a0: 4765 da3b d4dd 2a3e 2abe 103d 4a14 99be
000000b0: 28ff 97be 421d 94be aad0 84bd 373e cbbd
000000c0: 0f1b 4bbe db3e e0bd c860 83be cb2b 93bc
000000d0: be91 3c3e c4a4 5b3d 497e 17be f4d1 b83c
000000e0: fcb3 c5bc a1b4 d63d 9abb 573d 3a1b 2e3e
000000f0: 6e7e 253e 8ed7 e3bd b988 a73d 6c2b 733e
00000100: d548 933e 6668 923e 3f78 9d3d 9d2f 723e
00000110: 61e8 963d bc90 8b3e 2e7d 473c 40cf 403e
00000120: 17d4 403e 2780 83be 0879 35be f109 223d
00000130: e95c 6cbe 0566 0a3d 8fd4 153e 0caa 15be
00000140: b506 d73d fd4d 8f3a 1271 3b3d de94 3abe
00000150: a8c6 003d ceab 52be 7b93 aa3d 3ef5 de3d
00000160: 7179 56bc 27f0 10b8 b425 d23d 55b6 e23d
00000170: 3de2 febd a586 98bd 539a a6bd 0535 0a3e
00000180: c77b 3d3c b229 7d3d 7407 d0bd 7638 2abd
00000190: a4c7 913c 019d 17bd e930 6b3e e97a e3bc
000001a0: 275c 8dbd 09e1 d0bd a93c 353e 478a a83c
0.1715137 -0.23457474 0.3587296 0.19356757 0.037037507 0.19569772 0.07228382 -0.031299897
0.15682967 0.16885173 0.110878944 0.09800925 -0.072053455 -0.06474319 0.30428234 0.25955832
0.09111748 -0.005082438 -0.3185867 -0.047946073 0.25178418 0.28056952 0.20242801 -0.033472084
-0.23025839 -0.14278136 0.098416604 0.32455465 -0.097513065 0.050749432 -0.35431245 -0.15932177
0.27821425 0.14262052 0.1257713 -0.21758512 -0.19309266 -0.23469308 -0.033687454 -0.30323982
0.006664905 0.16686183 0.035337605 -0.29898292 -0.29686856 -0.28928572 -0.06485112 -0.09923976
-0.19834541 -0.10949489 -0.25659776 -0.017965218 0.18414971 0.05362393 -0.14794268 0.022561051
-0.024133675 0.10483671 0.052669145 0.17002574 0.1616151 -0.11125098 0.08180375 0.23747033
0.28766504 0.28595275 0.07688951 0.23650976 0.073685415 0.2725886 0.012175841 0.1882906
0.18830906 -0.2568371 -0.17721951 0.039560262 -0.23082317 0.0337887 0.14631866 -0.14615649
0.10499326 0.0010933276 0.04576213 -0.18220851 0.031439453 -0.20573351 0.08328911 0.1088662
-0.013090477 -3.4555935e-05 0.102610976 0.11069933 -0.12445495 -0.074475564 -0.08134904 0.13496788
0.011565155 0.061807342 -0.101576716 -0.04155775 0.017795391 -0.037014965 0.22967876 -0.027768569
-0.06902342 -0.10199172 0.17698921 0.020573748

bias f4 [3]
00000000: 8bc9 afbb ffbb 80bc ee76 aa3e
-0.005364602 -0.015714644 0.3329386

weight f4 [4, 3, 3, 3]
00000000: 19a8 2fbe d7fb cfbc d033 9cbd 45f5 403e
00000010: 8ad4 27be f003 fdbc 7c01 0fbe 4e76 83bd
00000020: 2ccb fbbd 31a4 783e ce98 b33c 54b6 6e3e
00000030: 9768 7c3e e985 993c bc5e 3f3e f125 c33e
00000040: 9f38 593c a81c 913e b0bf 183c cb92 343d
00000050: f1be 0f3e c7df dcbc d69e 6b3d 9709 e43d
00000060: c7b8 273e d6c0 08be 6bb1 813d a22e 2ebe
00000070: 9e61 06be 02b4 323d 9ff5 5cbe d5bf 553e
00000080: 8930 9b3e 2a14 65be 830d 55bd 798d 993e
00000090: e18f aa3c 95fe 6a3e 4d82 5b3c 8dab 403d
000000a0: ef4f b83d 869d 9f3c 1e97 793e ec02 973e
000000b0: 367f a23e 2c85 6a3e ec9e 503e 9f45 3c3b
000000c0: 8424 a53c f57c 473e 6a57 2fbd 74ee 8abd
000000d0: b04e 223e d490 1abe 61e5 5bbe 37b2 07bd
000000e0: 2478 8ebe aeb4 40be 155e 76bd d9bd 71be
000000f0: c5ad 91be b429 39be b183 55be 1954 64be
00000100: 087d 073e 0c52 4f3e 4ee2 2ebe 0d93 b23d
00000110: 5bff bb3b c77b c3bd d8ce 1ebd 8048 17bd
00000120: 62d7 b63e dd99 8f3d d0c3 53bd 268c ba3e
00000130: a13b 093e f96f 7e3e 20eb 613e ef26 473e
00000140: be07 8a3e 50b2 573d 8eb0 b13b f72c 71be
00000150: 7528 0ebe d3f3 413e de4c 24be b035 363d
00000160: 2cbc 0a3d 3ec9 68bc 1b95 76be e063 31bd
00000170: 4774 08be bf07 0cbe 2783 84be 07f7 d73d
00000180: 908a cebd 546f 15be 9e8b a1bd 7efe 9e3d
00000190: 1178 b13e 806a 9f3e c1be d63e 7374 3b3e
000001a0: 98ed c03d 7230 8a3e 9f79 a23e 3745 993d
-0.17153968 -0.025388641 -0.0762707 0.18843563 -0.16389671 -0.030885667 -0.1396541 -0.06419049
-0.12294611 0.24281384 0.021923449 0.2331174 0.24649273 0.018740611 0.18688482 0.38114884
0.013258128 0.28342175 0.009323046 0.044085305 0.14037682 -0.026962174 0.057524525 0.111346416
0.1637908 -0.13354811 0.06332668 -0.17009977 -0.13123176 0.0436287 -0.21578072 0.2087396
0.30310467 -0.22370973 -0.05201484 0.29990748 0.02082056 0.22948678 0.013397765 0.047038604
0.08999621 0.019484293 0.24374053 0.29494417 0.3173768 0.22902364 0.20373124 0.002872802
0.020159014 0.19481261 -0.042807974 -0.067837626 0.1585033 -0.1509431 -0.2147422 -0.033128943
-0.27826035 -0.18818924 -0.060148317 -0.23607577 -0.28452888 -0.18082315 -0.20851018 -0.22297706
0.1323129 0.20246142 -0.17078516 0.08719454 0.005737228 -0.09545093 -0.03877148 -0.036934376
0.357112 0.07011769 -0.051700413 0.3643505 0.13401653 0.24847402 0.2206235 0.19448446
0.26959032 0.052660286 0.0054226583 -0.23552309 -0.1388262 0.18940668 -0.16044948 0.044484794
0.03387086 -0.014208136 -0.24080317 -0.04330814 -0.13325606 -0.1367483 -0.2588131 0.105451636
-0.100850224 -0.1459325 -0.07887958 0.07763384 0.34661916 0.3113594 0.4194241 0.1830614
0.094203174 0.26990086 0.31733415 0.07483905

bias f4 [4]
00000000: 2bbc 503e 5f65 ffbc 7303 a43e a1de 5c3e
0.2038428 -0.031176267 0.32033882 0.21569301

weight f4 [17, 1444]
00000000: c13b df3d ed1d d63a 1a67 f8bc ee4e 23bc
00000010: 3412 13bc d6c2 a53c c8f0 df3b d17e 063c
00000020: 35bf dc3c 9b88 ff3c 4c3c 833c ced3 0e3c
00000030: cd88 e4bc 4909 513c e3ec 283c 7446 b7bb
00000040: 5328 73bd 7c55 b5bc 7901 0e3e 2e49 b73d
00000050: 08c7 e93c a31e 61bc 7ca1 d7bc e5e4 0dbd
00000060: 6a3b 9abc 6631 ffbc cbf0 cabb 7088 f2bb
00000070: e11b fbbc ea4b 95bc 4431 59bd 796f 14bc
00000080: 0b1d 31bc 0c0e c13c 0c8c b73c 33f6 82bd
00000090: 53ac 45bb 2201 113e 7dd3 a33d cc8a cd3c
000000a0: 6dc5 14bc 81cb 32bb eef4 15bd e806 da3c
000000b0: 18f7 6039 de34 86bc ff98 16bd 1113 5dbd
000000c0: 218b 34bd 0cda 1ebd 2203 0dbd 684e cd3c
000000d0: bdf1 c23c a0ea 123d bbe7 2dbd 5f10 acbb
000000e0: 0de9 fe3d 3168 df3d d481 283d 7998 90bc
000000f0: 2c50 f7bb 9843 8ebc 027b 9bbc 1235 2bbd
00000100: ab0b adbc 9572 0dbd bb66 83bc 2253 1ebd
00000110: 7343 823c 785e a0bc 7ea5 0e3d 1233 213d
00000120: f1ca 083d dcec adbc 0b2a d0bb 7623 523d
00000130: 785d a73d 1e3e 45b9 a5b3 12bd c0ea 54bd
00000140: 1d78 92bc 260d bfbc 1217 1cbd 6f1e 4ebd
00000150: 4475 03bd 9e27 16bd 80d6 86bc 2b97 a33b
00000160: 5d9a cd3c 4c1a 8f3c e678 903d d850 523c
00000170: 6c9a 30bd c5ac 23bd 433a bb3c b263 ce3c
00000180: b2ab 993c 1084 4bbd 6a78 60bd 28d8 c8bc
00000190: fd4b 0e3a 7115 55bb 5391 4fbd 80dd 03bd
000001a0: f7f0 a03b 6d8c 583d b530 863d 658f 373d
000001b0: 5426 013b 8a72 003d 571c fb3c 3545 99bc
000001c0: be16 36bd 9466 26bb 3acf fe3b 104b f03b
000001d0: a4b0 9ebc b6d7 52bd aa93 25bd d699 f8bc
000001e0: cc90 a73b 7482 82bb 264b df3c d1ec 213d
000001f0: 0193 2c3d 88fe 7c3d 28fc 9e3b 5f32 563b
00000200: 5ccf efbb 2e60 a2ba 667d a9bd 6c8a a3bd
00000210: e4ad d6bd 1018 15bc d182 353a a5bc 74bb
00000220: 1268 c7bc b912 8cbc 0378 9d3b e4cb fcbc
00000230: 6579 15bc 8475 263d bee2 4c3c ada2 bf3c
00000240: ea80 963c ea88 0b3d 4d4c 883b e9a3 07ba
00000250: 7225 dabc 435f 9dbd 6eac d5bd 8e73 09be
00000260: ad55 afbc b562 21bd d210 5bbb 4d84 41bc
00000270: ead5 0fbc 26f3 eabc e9e6 46bc 3bf4 02bc
00000280: 03e0 40bc 4d32 0bbc a52a 833c 9418 20bc
00000290: 14a6 0d3c 71e3 343b 800f 813c 51aa 16bd
000002a0: 6a29 adbd f45b e7bd 6fcc 06be 6ba2 9ebd
000002b0: 6655 54bd eedf d9bc 0df2 113d 3470 153c
000002c0: f8c9 7a3c 3332 cb3c 0478 c6bc 1ac3 13bc
000002d0: 8578 57bd 1bc8 61bc 3473 f2bb 7f2a fd3c
000002e0: eb41 453c 3b6a 0bbc f27e 8c3b cbde 5bbd
000002f0: ab50 06be dcb6 20be 18f0 0fbd 1804 19bd
00000300: 1cbc d33a 2d3f 743d edcd 3d3d 2c3f 703b
00000310: ceb0 613c f782 67bd 840f 4cbd 2d93 6fbd
00000320: 7b8e 82bd 740e 97bb af86 433d d987 ee3c
00000330: 34a0 a9ba 5988 35bc 033e e3bc 65bb 98bd
00000340: 0ed3 debd 89b6 16bc 9557 233d 2a9c 6b3c
00000350: dff1 5d3d e818 7fbb 4fc4 ea3c 4536 83bc
00000360: 1051 0abd 9752 50bd b09b afbd 2432 d9bc
00000370: 6d4d 523b e530 d33b cfac f1bb 6ccf d3bc
00000380: 0965 a6bc 2239 cd3b 269c a1bd 7aa3 f8bd
00000390: 6003 233c 353c a73c a016 54bb d6ab 223d
000003a0: bae4 b33b 7487 57bd 8bc3 44bd 5da6 47bd
000003b0: 9d66 d7bc bb49 d4bc 8a4b b9bc 3cb8 463c
000003c0: 62c7 093d 44cd 0dbc 1bb4 0cbd e484 51bc
000003d0: 0670 82bc 5ed4 cabc 7e70 2cbd d9a7 863b
000003e0: e1e8 9f3b ce03 10bd ef0b 133b 0251 2bbd
000003f0: 8335 4dbd 1df3 13bd 1dc0 b9bc 10e6 3abd
0.10900069 0.0016335823 -0.0303226 -0.009967549 -0.008976508 0.020234507 0.0068341233 0.008208946
0.026946643 0.031193068 0.016019963 0.00871749 -0.027897263 0.012758561 0.010310384 -0.0055931155
-0.059364628 -0.022135489 0.1386775 0.08949505 0.028537288 -0.0137402145 -0.026322119 -0.03464212
-0.018827159 -0.031151485 -0.0061932555 -0.0074015185 -0.030652942 -0.018224675 -0.0530255 -0.00905978
-0.010810147 0.023566268 0.022405647 -0.06394615 -0.0030162528 0.14160588 0.079993226 0.025090598
-0.009080273 -0.0027281942 -0.036610536 0.026614621 0.00021454354 -0.01638263 -0.036767002 -0.05397326
-0.044077996 -0.038782164 -0.034426816 0.025061801 0.02379691 0.035868287 -0.042457324 -0.005250975
0.12446795 0.10908545 0.04113944 -0.01765083 -0.007547399 -0.017366216 -0.018979553 -0.04179866
-0.021123728 -0.034533102 -0.016040197 -0.0386535 0.015901303 -0.019576296 0.034825794 0.039355345
0.033396665 -0.021231107 -0.006352668 0.05130335 0.081721246 -0.00018810524 -0.035815854 -0.051981688
-0.01787954 -0.0233217 -0.03810794 -0.050321992 -0.032094255 -0.036658876 -0.016459703 0.004992386
0.02509802 0.017468594 0.070543095 0.012836657 -0.04311602 -0.039959688 0.02285493 0.025194023
0.018758629 -0.04968649 -0.054802336 -0.024517134 0.0005428193 -0.0032514 -0.0506757 -0.03219366
0.0049115377 0.052868295 0.06552259 0.044814486 0.0019706683 0.031359233 0.030653162 -0.018709758
-0.044455282 -0.0025390731 0.007776168 0.007333167 -0.019371338 -0.05147525 -0.040424027 -0.030346792
0.0051136967 -0.0039828364 0.027257513 0.039532486 0.04213238 0.061766177 0.0048518367 0.0032683832
-0.0073184203 -0.0012388283 -0.08275871 -0.07985386 -0.10482386 -0.009099975 0.0006924095 -0.0037343886
-0.024341617 -0.017098771 0.0048055663 -0.030858941 -0.009123181 0.040639415 0.012505231 0.023393
0.018372018 0.03406612 0.0041594864 -0.0005174266 -0.026629183 -0.07684185 -0.10433279 -0.13422987
-0.021403158 -0.039400775 -0.0033426774 -0.011811328 -0.008779028 -0.028680395 -0.012140014 -0.007992799
-0.011772159 -0.008495879 0.016011545 -0.009771485 0.008645553 0.0027601386 0.015754461 -0.03678352
-0.08455165 -0.112968355 -0.13163923 -0.077458225 -0.051839255 -0.026596036 0.03563123 0.00912099
0.015306942 0.02480421 -0.02422715 -0.009018684 -0.05260517 -0.013780619 -0.007398987 0.030904053
0.012039642 -0.008509214 0.004287594 -0.05367927 -0.1311671 -0.15694755 -0.03514108 -0.03735742
0.0016154083 0.05963056 0.046338964 0.0036658747 0.013775064 -0.056521382 -0.049819484 -0.058489967
-0.06374832 -0.0046098772 0.047735866 0.029117512 -0.0012941421 -0.011079871 -0.02773953 -0.07457618
-0.10880099 -0.009198793 0.039878447 0.014380494 0.054185744 -0.0038924757 0.02865806 -0.016017089
-0.033768713 -0.050860014 -0.08574617 -0.026513167 0.0032089606 0.0064450377 -0.0073753367 -0.025855742
-0.02031185 0.0062629143 -0.07891111 -0.12140556 0.009949535 0.020414451 -0.0032362118 0.039714657
0.005489913 -0.052619413 -0.048038047 -0.04874264 -0.026294047 -0.025914064 -0.022619028 0.012128886
0.033637412 -0.008654896 -0.03435145 -0.012788031 -0.015922558 -0.024759468 -0.04209947 0.0041093645
0.0048800563 -0.03515988 0.0022437533 -0.041825302 -0.05009986 -0.036120523 -0.022674615 -0.04562956

bias f4 [17]
00000000: 0c5d 8c3c 69d8 9a3d 6c54 7d3d d409 cd3d
00000010: 37d2 2abd 9c69 9bbc e21c 9cba f29b 813d
00000020: d7e1 47bd f0dd 033c 8464 133e a1df 823d
00000030: 9435 0f3d 572e 003e 3bcc d6bc 88a6 043e
00000040: f7ce 0ebd
0.017134212 0.07560808 0.06184809 0.1001164 -0.041704383 -0.018971257 -0.0011910463 0.06328572
-0.048799362 0.0080485195 0.14393812 0.0639031 0.034963205 0.12517677 -0.026220432 0.12954152
-0.034865346

weight f4 [16, 17]
00000000: 4997 e1bd cb9f 993c fc41 943e 6be8 72bc
00000010: a45d 1e3d ac28 bbbd bd42 ce3c cd2c 0839
00000020: 2854 7cbe a91e aa3e ddb6 4a3e d5d7 253e
00000030: 2463 ea3d 0452 f93c 7bfd 3fbd 8e81 98be
00000040: 5ace 233e d080 283e cc69 28bd 991d b3be
00000050: bdcf b93d 91f8 9b3d 67aa 4a39 3c49 733d
00000060: 39cd 57be b339 383e a111 a23a 0a13 983d
00000070: 5d6b 0ebe 6cd1 473e 5018 4f3e 539f 793d
00000080: edf5 233e 8b63 c5bd 0291 39be e45e 3f3d
00000090: d4c0 743e 4bd1 603e dd6d fd3c f622 a6bd
000000a0: 18ee 873e c734 3fbe 9a34 ae3d 9b9d 80be
000000b0: d83e 323e a77f a6be 78af f5bd 12ba b2be
000000c0: 58d0 193e 672b 2f3e f85f 603e 1ec7 2dbe
000000d0: 6a7d 693e 9c57 653e 5a24 0ebd 5fc6 073e
000000e0: 6e56 a2be 6ec9 c33d 342b 81be 3823 b0be
000000f0: fd6a a93d 7560 963e f490 1e3d 59ef 36be
00000100: 5d1e e03e fecf d33c 143e 9a3e ec13 c03d
00000110: 30a2 a93c a8dd 6ebe b575 403d 704a 00be
00000120: 4a0f 6a3e 43c2 5e3e ec91 70bd d027 cabd
00000130: b246 f73d fa27 773e 0539 08be 9f11 823e
00000140: d622 c53e 3c9c 7dbe 4d8a d3bc ff05 50be
00000150: b8ad 843e 090a d13e b36b d83c be30 b6be
00000160: 63fd 553d fdb6 06be 7745 1ebe 14cd dfbd
00000170: 648f 613e 60d0 df3d ebe9 183e f565 863e
00000180: b74c ff3d 0caa c3bd 69c8 413e ca45 653d
00000190: 1325 313e 4c6c 5d3d 3c57 44bc 6d6e 34be
000001a0: e3f9 933d 21cc 9fbe 58c3 033e 8cfb 9d3d
000001b0: 12c7 38be cf20 9abd 31d8 553e 0bff 113e
000001c0: d3b8 313c 3a4a 9e3e 1651 12bd 127f abbe
000001d0: 2394 8d3e 1f4f d73d efce 0bbe fb7b 4d3d
000001e0: 70d9 563c 2552 6c3d 447b d8bb 562e 293e
000001f0: 470c 023e 19e3 5dbd e2bf 3ebe 833f dbbd
00000200: 8c10 b03e 87dd 4bbe b3b1 90be b91c be3d
00000210: 777b 013e 6a8d 7d3e 288c 8cbe 8194 733e
00000220: e41b 68bd 8cd9 b53d 6ce7 21be f902 86be
00000230: 48db 503e 29e4 4c3e 6d80 22bc 8755 b53d
00000240: f2a1 8a3e 0d99 46be 8eb3 873d 066d 693e
00000250: 46ae 1d3d c126 a53d 69b3 603e 5221 ee3c
00000260: d1b6 173e a4c9 473e 24d5 3cbd f028 06be
00000270: e3e5 8b3d 84ce 703e b12c 81be 0d3d 6bbe
00000280: 01b2 b9bc f8dd 803d d800 e1bd 81c6 233d
00000290: 2108 123c d643 63be d207 9ebe 2171 c43b
000002a0: cec7 62bd 43e6 213c 4eff 93be edc9 0c3e
000002b0: 2308 ad3e 426d 813e b237 c1bd d84d debe
000002c0: f198 9c3e b5c4 acbe 46c4 973c 6d8e eabd
000002d0: 27ae 68be 3d7a 39bd f8cd efbc aa2f ccbd
000002e0: 9e4d 1c3e 08a0 853e 662a 6f3e 56c3 ce3e
000002f0: 3121 553e d65d 19bd a049 a1bd e5ee 203e
00000300: 62b3 18bd b159 af3e de3f 38be 9587 49be
00000310: 7154 a93d 3e3c dcbd 06aa 17bd 9f89 41be
00000320: 17e8 b1bd e31d 3bbd 397c d13c dc12 a63e
00000330: 4508 41be 2e41 54be f335 73be e480 e53d
00000340: 78e6 26be abd7 a03d cc97 013e 8709 3fbe
00000350: bc1a 53be c62a d93d b108 75be 3366 853d
00000360: faae 40be ce58 debd fb08 a4bc 7a18 7ebd
00000370: a84a 703e 5313 8dbe 361d 603e 4dd2 13be
00000380: 983c 773e f0a5 983e 3bc3 2b3e bdfd 843e
00000390: 6f2d eabd e5b3 523e dae5 f63d 80a1 52be
000003a0: 5b86 a23b 69f3 a13e 0248 f93d 4244 733d
000003b0: 76f9 ce3e 031a 333d 8ab1 07be 6a65 d4bd
000003c0: 7445 79bc 84e0 8e3e 645b 373e 884b d13d
000003d0: 8af8 9c3b df80 033e 92a9 373d 2658 47be
000003e0: 7c47 113e eb26 403d d72f 89be 350d b4be
000003f0: 1bfa a03d b6be e83d 062a 87be f541 973d
-0.110151835 0.018752953 0.28956592 -0.014825921 0.03866352 -0.09138617 0.025178308 0.0001298666
-0.24641478 0.33226517 0.1979632 0.16195615 0.11444691 0.030434616 -0.046872597 -0.29786342
0.15996686 0.16455388 -0.04111652 -0.3498352 0.09072826 0.0761577 0.00019327701 0.059396014
-0.2107438 0.1799076 0.0012364873 0.074255064 -0.13908143 0.19513482 0.20224118 0.06094296
0.16011782 -0.09638127 -0.18121722 0.046721354 0.23901683 0.21954839 0.030936176 -0.08112137
0.2654884 -0.18672477 0.08506127 -0.25120243 0.17406785 -0.32519266 -0.11996359 -0.34907585
0.15020883 0.171064 0.21911609 -0.16970488 0.22801748 0.22396702 -0.034702636 0.13259266
-0.31706566 0.09559904 -0.25228274 -0.3440187 0.082723595 0.29370466 0.038712457 -0.17864741
0.43773165 0.025856014 0.30125487 0.093788 0.02070722 -0.23326743 0.046987254 -0.12528396
0.22857395 0.21753792 -0.058732912 -0.09870875 0.12074031 0.24136344 -0.13303001 0.2540407
0.3850314 -0.2476663 -0.025822783 -0.20314787 0.25913787 0.4082797 0.026418542 -0.35584062
0.0522436 -0.13155742 -0.15456186 -0.109277874 0.22027355 0.10928416 0.14932983 0.26249662
0.12465804 -0.09553918 0.18924107 0.05597476 0.17299299 0.054058358 -0.011983689 -0.17620249
0.072253965 -0.31210425 0.12867486 0.077139944 -0.1804469 -0.07525789 0.20883252 0.14257447
0.010847288 0.30916005 -0.03572186 -0.33495384 0.27652082 0.10513138 -0.13653158 0.050167065
0.013113365 0.057695527 -0.0066064913 0.16521582 0.12699996 -0.054171655 -0.18627885 -0.10705473
0.34387624 -0.19908725 -0.28260574 0.09282822 0.12644754 0.24760976 -0.2745068 0.23787118
-0.056667224 0.088793844 -0.15810937 -0.26174143 0.20396149 0.20008911 -0.009918314 0.08854204
0.2707668 -0.19394322 0.06626044 0.22795495 0.03849628 0.08064032 0.2194344 0.029068623
0.14815833 0.19510514 -0.046101704 -0.13101554 0.06830957 0.2351628 -0.2522941 -0.22972508
-0.022667887 0.06292337 -0.10986489 0.03998423 0.008913071 -0.22193846 -0.3086534 0.0059949313
-0.05536633 0.009881559 -0.2890572 0.13748904 0.3379527 0.2527867 -0.09434451 -0.43418765
0.30585435 -0.33743826 0.018526208 -0.11452947 -0.22722684 -0.04528259 -0.029273018 -0.09970029
0.15263984 0.26098657 0.23356017 0.40383404 0.20813443 -0.037443005 -0.07875371 0.15716131
-0.037280448 0.34248117 -0.17993113 -0.19680627 0.08268059 -0.10753678 -0.03702738 -0.18900155
-0.08686846 -0.0456828 0.02557193 0.32436264 -0.18850811 -0.20727989 -0.23751049 0.112062246
-0.16298854 0.078536354 0.12655562 -0.18655978 -0.20615667 0.106038615 -0.23929097 0.065136336
-0.18816748 -0.10856782 -0.020023813 -0.06203506 0.23465979 -0.27553806 0.21886143 -0.14435692
0.24144208 0.298141 0.16773693 0.25974837 -0.11434447 0.20576437 0.120555595 -0.2056942
0.004959864 0.3163102 0.121719375 0.059391268 0.404247 0.04372598 -0.1325132 -0.10370906
-0.015214313 0.27905667 0.17905957 0.102194846 0.0047903704 0.12842129 0.04483945 -0.1946722
0.14187425 0.046912115 -0.2679431 -0.35166326 0.07860204 0.113645 -0.2639925 0.07385627

bias f4 [16]
00000000: 0d65 b8bd 2127 5fbe 38f0 18bd e08f 843e
00000010: 9dd4 f73d 11ff e5bd 01f0 3fbe 8666 cb3d
00000020: d88e 033e 7feb 3bbe 9302 653e e792 353d
00000030: eeb8 f2bd 0def 863e 9715 343e 8438 353e
-0.09003649 -0.2179227 -0.037338465 0.25891018 0.121011 -0.11230291 -0.18743898 0.09931664
0.1284746 -0.18351553 0.22364263 0.04432955 -0.11851679 0.26354256 0.17586361 0.1769734

weight f4 [10, 16]
00000000: 70dc bcbe 588b d0bd 53ca 13bd 8e40 57be
00000010: 184b 80be 291c d8bd c5a2 b4bd d951 02be
00000020: 0105 0b3e ac57 acbd 1585 7dbe 62c9 88be
00000030: e0a4 b43d 06ab 9c3e 312c 52be 6acb 803e
00000040: 293d 853e f615 93be b001 87be 2d30 38be
00000050: 6390 a93e 2927 6abe be97 163e 2109 a13e
00000060: ded0 2ebe 92a4 6d3d 8c0d f13b 2b2b 89be
00000070: c09a 143d 1250 afbd 5b4c 0c3d 7f85 2f3e
00000080: 4460 af3c 6cf1 86bd ffb3 0b3e 8043 51be
00000090: ccd9 13be 4125 923e a239 e03d 8459 92be
000000a0: 7b71 85bd 4335 f83d f145 34be f24d 3dbe
000000b0: c600 363e 58ad 40bd 5400 9f3d 72ee f63d
000000c0: d8c5 a0be c407 ad3e 6a1d 94bd d8f4 49bd
000000d0: dad2 5c3e 06ba 85be 0a29 713e 09ef 023e
000000e0: 8cb5 c13b 7a47 ae3d 0795 92be afae 9c3d
000000f0: 80c0 aebc 8891 013e 0a11 85be 0bd0 143e
00000100: 99e3 0c3d 2f33 a0be e7fd 5fbd e917 2cbd
00000110: 13d6 283e c9a2 efbc 6588 5b3e 521c e4bd
00000120: caad d53d de23 343e 9edd 95be 9f81 90be
00000130: 8e5d 0c3e 416a 21be 01c8 883e a272 6b3d
00000140: 7709 1b3e 6c2e 84be cbf7 323e 8b27 0fba
00000150: a8fe bdbe 9063 bbbe 4860 35be 83d4 c3bd
00000160: e5a4 9ebe b071 89be 0376 3c3d a33f bc3d
00000170: 6ec0 5f3e 1814 483e ed81 9a3e 26fd b6bd
00000180: 9b47 8fbe 5bf0 ec3d abeb 803d 2502 7abe
00000190: 3e4f 243e 3e7c c73d a9dd f9bd 726d 693d
000001a0: 42ef 06be d881 863e d175 0dbe 1e42 34be
000001b0: fab9 1bbe 9e8d 08be 2f35 fc3d 6dff 933e
000001c0: b9e0 ff3d de00 dbbd 730c 763d 6e82 b53e
000001d0: 612a 02bd 571b c4bc ee6b 173c 92f2 9dbe
000001e0: b67c bbbd dd9c 09be 3559 273e bbc4 2f3e
000001f0: 7c23 413e fa48 033e 3f95 12be c7d1 abbe
00000200: 337e 623e b77e 2ebe 118d aabe 164f 873e
00000210: 841f 92be 0b50 6fbc 2a86 52bd 401a 3d3e
00000220: 8612 0a3d 7104 84be 89a8 9ebe cf59 753e
00000230: 8085 793e c6b8 d9bd 3573 523c b58f 7b3e
00000240: 3b5d 703e 1553 a53e 5e5b b13d aa7b 883d
00000250: bbd9 1fbd 9bb3 843e 2ff3 cabe ebc6 963e
00000260: f7ad 79be b051 0f3c 2491 ef3d b7c3 363e
00000270: 88b9 363d 082e 73bd c14f 64be aa33 25be
-0.3688693 -0.10182828 -0.036081623 -0.2102072 -0.25057292 -0.10552246 -0.08820108 -0.12726535
0.13576128 -0.084151596 -0.24757798 -0.26716143 0.0882051 0.3059923 -0.2052467 0.25155193
0.26023224 -0.28727692 -0.26368475 -0.17987128 0.3311797 -0.22866501 0.14706323 0.31452277
-0.17071864 0.058018275 0.0073563512 -0.26790747 0.036280394 -0.08560194 0.034252506 0.17140768
0.021408208 -0.06589016 0.13642882 -0.20435905 -0.14438552 0.28544047 0.109484926 -0.2858392
-0.06515785 0.12119534 -0.17604806 -0.18486765 0.17773733 -0.047040313 0.077637345 0.120571986
-0.31400943 0.33794987 -0.07232173 -0.049305767 0.21564808 -0.26118487 0.23550811 0.12786497
0.0059115347 0.08509727 -0.28629324 0.07650506 -0.021332026 0.12653172 -0.25989562 0.14532487
0.03439674 -0.3128905 -0.0546855 -0.04201499 0.16487913 -0.029252427 0.21438749 -0.11138214
0.10433538 0.17591807 -0.29270643 -0.28223893 0.13707563 -0.15763189 0.2671509 0.05748237
0.1514033 -0.25816667 0.17477338 -0.00054609095 -0.3710835 -0.36599398 -0.1771251 -0.09562018
-0.3098518 -0.2684455 0.046010982 0.09191825 0.2185075 0.19538915 0.3017725 -0.08935003
-0.27984318 0.11569282 0.0629495 -0.2441488 0.16045853 0.09740494 -0.122004814 0.05698914
-0.13177207 0.26270938 -0.13814475 -0.17603347 -0.15207663 -0.13335273 0.123148315 0.28905812
0.12494034 -0.10693525 0.060070466 0.35451072 -0.031778697 -0.023938818 0.009242041 -0.3084913
-0.09154646 -0.13438745 0.16342624 0.1716489 0.18861192 0.12820807 -0.14314745 -0.33558485
0.22118454 -0.17040525 -0.3331075 0.26427525 -0.2853967 -0.014606486 -0.05139748 0.18467045
0.03370907 -0.2578464 -0.30987957 0.2396004 0.24367332 -0.10630946 0.01284485 0.24566539
0.23473065 0.3228995 0.08660005 0.06664212 -0.039026003 0.25918278 -0.3963866 0.29448637
-0.24382769 0.008747503 0.11697605 0.17848097 0.04461053 -0.05937007 -0.22296049 -0.1613299

bias f4 [10]
00000000: fc30 6f3e 0be9 0e3d 4c3b 8a3d 47be 84be
00000010: 0e5a 31be 0fb4 05be 5d77 db3d 2cfa 43be
00000020: ff5f 3cbc f00c 9f3d
0.2335853 0.034890216 0.06749591 -0.2592642 -0.1731951 -0.13056968 0.10716126 -0.19138402
-0.011497497 0.077661395
