HW1/classification/CNN_fashionMNIST_80_epochs.pt (torch, 116999 bytes, 10 tensors)

weight f4 [3, 1, 6, 6]
0.1923018 0.1560178 -0.14697596 -0.28551474 -0.44151485 -0.037328072 0.18878402 -0.069928765
-0.08117918 -0.04891744 -0.40539604 -0.00023897059 -0.22174084 0.040945094 0.2129049 0.22725166
-0.22682364 -0.04468148 -0.20310943 0.084670775 0.124355964 0.24131337 -0.24157046 0.00952377
0.10658043 0.26071435 0.14510618 0.052227307 -0.024029667 -0.012523697 0.2561972 0.17953378
-0.0048367074 0.17592663 -0.07688971 0.0004701075 0.19776005 0.24682286 0.09198106 -0.07061232
0.300279 -0.007465367 -0.0009790245 0.11437076 -0.07732196 -0.019120324 0.25903535 0.17725989
-0.17942603 -0.0940395 -0.2541361 -0.14826009 0.36897784 0.08396974 -0.25944185 -0.31763962
-0.17192352 -0.09099525 0.13863252 0.06507534 -0.21250013 -0.07298231 -0.2649481 0.03768608
0.25188076 -0.09246688 0.05066719 -0.27178717 -0.13350624 0.1037731 0.20805359 -0.056981754
0.12899616 0.07514367 0.33760554 0.2758208 0.008039217 -0.1621078 0.26352108 0.24939796
0.4192226 0.23490226 -0.07452057 -0.33050042 0.12340501 -0.017018737 0.1363892 0.3127416
-0.32701892 -0.1397883 -0.05923393 -0.0055308407 0.13195868 0.13674933 -0.27799395 -0.098904945
0.08301948 0.14709437 0.008634456 -0.09939091 -0.28095168 -0.28497663 -0.029643109 0.05369429
-0.066818915 -0.26242507 -0.47488722 -0.050728243
00000000: c3ea 443e 21c3 1f3e de80 16be fd2e 92be
00000010: 3c0e e2be 52e5 18bd 9950 413e d036 8fbd
00000020: 4541 a6bd a75d 48bd 1290 cfbe 2e94 7ab9
00000030: 0810 63be 0bb6 273d be03 5a3e a9b4 683e
00000040: 7544 68be ed03 37bd ebfb 4fbe df67 ad3d
00000050: 57ae fe3d da1a 773e 3f5e 77be 9609 1c3c
00000060: d746 da3d 5a7c 853e b796 143e 4dec 553d
00000070: ddd9 c4bc 3130 4dbc 482c 833e b4d7 373e
00000080: 3e7d 9ebb 1c26 343e 5a78 9dbd c378 f639
00000090: 9c81 4a3e 22bf 7c3e 9160 bc3d 319d 90bd
000000a0: 2bbe 993e 0aa0 f4bb 9c52 80ba 383b ea3d
000000b0: fa5a 9ebd 3aa2 9cbc 48a0 843e 9e83 353e
000000c0: 75bb 37be c897 c0bd 201e 82be 7ed1 17be
000000d0: aaea bc3e 54f8 ab3d 90d5 84be a9a1 a2be
000000e0: b80c 30be b85b babd aff5 0d3e 3846 853d
000000f0: a299 59be c077 95bd 47a7 87be b85c 1a3d
00000100: 84f6 803e 475f bdbd 6688 4f3d b027 8bbe
00000110: dcb5 08be fe86 d43d 000c 553e b365 69bd
00000120: 9217 043e ede4 993d a2da ac3e 6238 8d3e
00000130: ecb6 033c 96ff 25be 3cec 863e 2e62 7f3e
00000140: 58a4 d63e 388a 703e 3e9e 98bd 5a37 a9be
00000150: c4bb fc3d e16a 8bbc 9ca9 0b3e ab1f a03e
00000160: 066f a7be aa24 0fbe 479f 72bd 0e3c b5bb
00000170: 2d20 073e 0408 0c3e 3955 8ebe ad8e cabd
00000180: 1e06 aa3d e89f 163e 8977 0d3c 768d cbbd
00000190: e6d8 8fbe 75e8 91be 1bd6 f2bc 8bee 5b3d
000001a0: 5bd8 88bd 945c 86be 6b24 f3be 6bc8 4fbd

bias f4 [3]
0.049022246 0.07021922 0.1385062
00000000: 8dcb 483d 18cf 8f3d 92d4 0d3e

weight f4 [4, 3, 3, 3]
-0.2876216 -0.17573126 -0.3572192 -0.22069138 -0.3797052 -0.06693516 -0.29201648 -0.27607593
-0.4101075 -0.00087466923 -0.13865502 -0.18675911 0.014114516 -0.12549853 0.13963723 -0.06455855
-0.1845295 0.09734525 0.064276956 0.08621498 0.14540902 0.052121926 0.31928685 0.21657011
0.3025058 0.26916313 0.12765184 -0.06482043 0.26660252 -0.011548909 -0.13192593 0.09671679
0.133251 -0.19185096 -0.123515025 0.16010974 -0.20434497 -0.4635536 -0.27017835 0.0025320353
-0.23302095 -0.2896645 -0.31599593 -0.38761973 -0.31415486 0.27138636 0.23268345 0.3039675
0.32332367 0.0708837 0.26816064 0.17489235 0.20088963 0.18391393 0.64073855 0.6240619
0.30589774 0.5490788 0.19281445 -0.014153076 0.23315227 0.16777039 -0.007740129 0.12769702
0.069379605 0.077035405 -0.085040204 0.13964267 0.045053788 -0.10564752 -0.21205394 -0.15954696
2.7713866e-06 -0.029808495 0.19813085 0.03150883 0.023681827 -0.106081754 -0.23886733 -0.24488474
-0.29096285 0.00116124 -0.064766854 0.4248806 0.27381653 -0.19506577 0.24341081 0.17989133
-0.13354139 0.22535723 0.33088475 0.5241172 0.2018531 0.3591721 0.35698998 0.10307973
0.13217527 0.53224236 0.23498903 0.044399124 -0.29298165 0.1921683 -0.19771592 -0.29651937
0.27369237 0.00084643543 -0.20071632 0.11440749
00000000: 2343 93be e5f2 33be 6fe5 b6be ecfc 61be
00000010: b868 c2be 4d15 89bd 2f83 95be d359 8dbe
00000020: 9cf9 d1be 0f4a 65ba 95fb 0dbe c83d 3fbe
00000030: 9240 673c b082 00be 10fd 0e3e 4637 84bd
00000040: 4df5 3cbe f25c c73d a3a3 833d 7b91 b03d
00000050: 1ae6 143e cd7d 553d 9179 a33e 8ec4 5d3e
00000060: 0ae2 9a3e c0cf 893e 2ab7 023e 93c0 84bd
00000070: 2080 883e a337 3dbc 9717 07be 7413 c63d
00000080: f372 083e 9474 44be 72f5 fcbd cff3 233e
00000090: cf3f 51be e656 edbe d154 8abe 81f0 253b
000000a0: 0b9d 6ebe e84e 94be 38ca a1be 1876 c6be
000000b0: e8d8 a0be 27f3 8a3e 9244 6e3e a1a1 9b3e
000000c0: ae8a a53e 792b 913d 5a4c 893e fb16 333e
000000d0: 03b6 4d3e ef53 3c3e 7107 243f 85c2 1f3f
000000e0: a19e 9c3e 6e90 0c3f 2771 453e 4ee2 67bc
000000f0: 78bf 6e3e 00cc 2b3e e8a0 fdbb 02c3 023e
00000100: e516 8e3d bdc4 9d3d 8f29 aebd 7dfe 0e3e
00000110: 528a 383d ba5d d8bd ab24 59be 4760 23be
00000120: 0ffc 3936 f230 f4bc d0e2 4a3e 670f 013d
00000130: 6400 c23c 6441 d9bd a399 74be 11c3 7abe
00000140: 15f9 94be c034 983a 7ca4 84bd f389 d93e
00000150: ae31 8c3e 52bf 47be af40 793e 6f35 383e
00000160: 13bf 08be 0cc4 663e ba69 a93e 8b2c 063f
00000170: 94b2 4e3e 68e5 b73e 64c7 b63e 771b d33d
00000180: f458 073e 0941 083f f7a0 703e dbdb 353d
00000190: b101 96be c4c7 443e 0b76 4abe 63d1 97be
000001a0: 6821 8c3e 52e3 5d3a 9488 4dbe 794e ea3d

bias f4 [4]
0.032358393 -0.20652182 0.021367319 -0.1337007
00000000: 3c8a 043d 757a 53be 840a af3c d6e8 08be

weight f4 [17, 1444]
0.10512824 0.22966029 0.27676618 0.26350206 0.32240736 0.3266571 0.40471876 0.2379696
-0.06311472 -0.27570045 -0.2684909 -0.23217456 -0.22129582 -0.21196629 -0.024799766 0.1856239
0.3927312 0.41422454 0.33899269 0.27562025 0.28795904 0.23081057 0.123111546 -0.0036368875
-0.09529165 -0.030498486 -0.04023964 -0.098605834 -0.15376598 -0.14261152 -0.06041042 -0.08374093
-0.1751636 -0.14886054 -0.07558289 0.076778136 0.15891263 0.16780712 0.31034794 0.26269597
0.30748257 0.18944217 0.021201996 -0.11908746 -0.07898659 0.022169378 -0.027086515 -0.032375842
-0.018828545 0.11003017 0.13436057 0.05346718 -0.10726814 -0.16688426 -0.03012714 0.056062482
0.18420713 0.32613865 0.25574392 0.2939869 0.23624867 0.05800874 -0.0049695405 0.0129634645
0.019958375 0.022025323 -0.004761772 0.083336234 0.14468904 0.19704808 0.07488035 -0.10335687
-0.14588703 -0.025025474 0.12097612 0.22386768 0.3292861 0.23812108 0.23899892 0.23147732
0.1327069 0.15003924 0.10567794 0.057236385 0.017547088 -0.017081639 0.09514274 0.14440829
0.15807013 0.06455392 -0.1142463 -0.13541694 0.056397017 0.22462642 0.36766627 0.4632608
0.2546229 0.26572493 0.21524686 0.13717726 0.22417644 0.21001954 0.04061638 -0.027524961
-0.029481018 0.052628994 0.1378389 0.117786355 0.090016186 -0.045331914 -0.02912567 0.11798054
0.19757333 0.32364404 0.317826 0.19049357 0.17135692 0.17482041 0.1987549 0.26973942
0.11798191 0.033423778 -0.0069094235 0.049381122 0.14139853 0.2526407 0.16292146 0.17468524
0.14745757 0.074882455 0.15492502 0.19055623 0.196222 0.2064236 0.11742415 0.12115772
0.11797889 0.10793447 0.21936037 0.023901148 -0.03026176 -0.049647342 0.02414574 0.12022053
0.20153032 0.13353363 0.21789317 0.23814583 0.10262731 0.11510263 0.11809573 0.1928349
0.20577757 0.0640919 0.0748128 0.037919875 0.09842646 0.13777441 -0.032182757 -0.12958841
-0.083649375 0.065766424 0.10740157 0.15478328 0.06777103 0.22479516 0.30182725 0.11560026
0.08278545 0.07168393 0.25304213 0.12195081 -0.0057892036 0.01288654 -0.021664562 0.05732122
0.06800979 -0.044561148 -0.107892096 -0.016786698 0.1944038 0.32379502 0.28987357 0.14605215
0.17890106 0.16089323 -0.078577384 -0.12728481 -0.11892055 0.10804823 0.1036962 0.072197676
0.019880734 0.044324566 0.08495674 0.13702615 0.08658978 -0.01051094 -0.030712172 0.15119772
0.2022759 0.20306437 0.03504646 0.07340695 0.08119472 0.031894244 -0.14032084 -0.14916295
0.15310395 -0.028529268 0.030954186 0.044179264 0.1231913 0.16951272 0.0740566 -0.03850632
-0.16908821 -0.19022782 -0.031320013 0.10917114 0.1261989 -0.057828225 0.09807639 0.12432354
0.14046067 -0.027605945 -0.083171465 0.14564948 -0.0021268057 0.035143226 0.054462355 0.020881396
0.03413917 0.04891068 -0.12835833 -0.11570196 -0.14691138 0.0059517836 0.100404784 0.1674436
0.01282959 0.0831385 0.16352971 0.12750234 0.019676663 -0.01023975 0.21520492 -0.041197866
-0.11488115 -0.037049036 0.028525984 0.091772035 0.026898175 -0.07210518 -0.08141018 -0.08975278
00000000: 7a4d d73d 112c 6b3e 4cb4 8d3e bee9 863e
00000010: 9412 a53e 993f a73e 4c37 cf3e 4eae 733e
00000020: 4a42 81bd 9c28 8dbe a477 89be 2bbf 6dbe
00000030: 5f9b 62be b10d 59be e128 cbbc 3114 3e3e
00000040: 1014 c93e 3d15 d43e 7390 ad3e 191e 8d3e
00000050: 5e6f 933e 9b59 6c3e e821 fc3d d958 6ebb
00000060: 4528 c3bd f6d7 f9bc 52d2 24bd dbf1 c9bd
00000070: d474 1dbe c108 12be eb70 77bd 5d80 abbd
00000080: 165e 33be e66e 18be 34cb 9abd db3d 9d3d
00000090: feb9 223e a1d5 2b3e ede5 9e3e 1680 863e
000000a0: 5b6e 9d3e 21fd 413e cfaf ad3c 20e4 f3bd
000000b0: b9c3 a1bd 8e9c b53c 8ae4 ddbc 889c 04bd
000000c0: 523e 9abc 7f57 e13d d195 093e 6700 5b3d
000000d0: 66af dbbd b5e3 2abe 31cd f6bc c6a1 653d
000000e0: cba0 3c3e a5fb a63e def0 823e 7385 963e
000000f0: 2ceb 713e 939a 6d3d 87d7 a2bb b664 543c
00000100: bf7f a33c 736e b43c a408 9cbb 30ac aa3d
00000110: 5d29 143e f9c6 493e de5a 993d c4ac d3bd
00000120: 6963 15be 3902 cdbc 54c2 f73d 923d 653e
00000130: 3098 a83e 03d6 733e 22bc 743e 6408 6d3e
00000140: 51e4 073e e3a3 193e ad6d d83d b370 6a3d
00000150: e9be 8f3c cbee 8bbc 32da c23d c4df 133e
00000160: 23dd 213e d834 843d f7f9 e9bd bdaa 0abe
00000170: 8f00 673d 7804 663e c13e bc3e 8530 ed3e
00000180: ef5d 823e 190d 883e ac69 5c3e 3278 0c3e
00000190: 828e 653e 5d0f 573e 5c5d 263d 077c e1bc
000001a0: 2d82 f1bc 8091 573d a425 0d3e f939 f13d
000001b0: 685a b83d f5ad 39bd f598 eebc c89f f13d
000001c0: aa50 4a3e acb4 a53e 17ba a23e bf10 433e
000001d0: 3078 2f3e 1f04 333e 6886 4b3e 491b 8a3e
000001e0: 80a0 f13d 5fe7 083d 7268 e2bb dc43 4a3d
000001f0: c7ca 103e 1f5a 813e e2d4 263e b0e0 323e
00000200: 1eff 163e f95b 993d aaa4 1e3e 2c21 433e
00000210: 6cee 483e b560 533e 137c f03d 8a21 f83d
00000220: eb9e f13d bf0c dd3d 01a0 603e 57cc c33c
00000230: 83e7 f7bc 035b 4bbd 49cd c53c 2e36 f63d
00000240: f75d 4e3e 0abd 083e 631f 5f3e 80dc 733e
00000250: 442e d23d edba eb3d 2ddc f13d 8376 453e
00000260: 5bb7 523e 9d42 833d 7437 993d df51 1b3d
00000270: d093 c93d bc14 0d3e 11d2 03bd d3b2 04be
00000280: 5d50 abbd 8cb0 863d 5bf5 db3d 827f 1e3e
00000290: 8acb 8a3d b430 663e 1a89 9a3e d4bf ec3d
000002a0: 6b8b a93d 06cf 923d bd8e 813e 59c1 f93d
000002b0: 5cb3 bdbb 1122 533c e179 b1bc a8c9 6a3d
000002c0: b748 8b3d c085 36bd 88f6 dcbd 4284 89bc
000002d0: ca11 473e 76c8 a53e 4f6a 943e b28e 153e
000002e0: d731 373e 32c1 243e 2eed a0bd f356 02be
000002f0: 9e8c f3bd 6448 dd3d ac5e d43d 60dc 933d
00000300: ecdc a23c ad8d 353d cdfd ad3d 9550 0c3e
00000310: fc55 b13d 1436 2cbc 1898 fbbc 93d3 1a3e
00000320: 6a21 4f3e 1bf0 4f3e e08c 0f3d 6256 963d
00000330: 6b49 a63d 8aa3 023d 44b0 0fbe 2cbe 18be
00000340: 48c7 1c3e 36b6 e9bc a293 fd3c 51f5 343d
00000350: b84b fc3d be94 2d3e fdaa 973d ceb8 1dbd
00000360: 7625 2dbe 15cb 42be 6a49 00bd 1e95 df3d
00000370: 493a 013e 4add 6cbd 46dc c83d 579d fe3d
00000380: ecd4 0f3e dd25 e2bc cd55 aabd 2325 153e
00000390: e161 0bbb 58f2 0f3d eb13 5f3d 760f ab3c
000003a0: 84d5 0b3d 9156 483d 5e70 03be 26f5 ecbd
000003b0: f06f 16be 2e07 c33b 06a1 cd3d 5676 2b3e
000003c0: 3333 523c 8544 aa3d 5574 273e f98f 023e
000003d0: f430 a13c a0c4 27bc ae5e 5c3e 18bf 28bd
000003e0: cf46 ebbd bbc0 17bd 53af e93c faf2 bb3d
000003f0: 9059 dc3c e1ab 93bd 61ba a6bd 4ed0 b7bd

bias f4 [17]
-0.08260776 0.008499096 0.13661122 -0.17249054 -0.024547666 -0.36189607 0.19960545 -0.059131373
-0.022198977 -0.12013378 0.0053600515 0.009539705 -0.010878968 0.0013097886 0.39704028 -0.0075442963
0.01387942
00000000: 422e a9bd cb3f 0b3c d0e3 0b3e 5ca1 30be
00000010: 3018 c9bc 714a b9be 5f65 4c3e bd33 72bd
00000020: a1da b5bc b308 f6bd 5fa3 af3b 6c4c 1c3c
00000030: b33d 32bc 36ad ab3a dd48 cb3e 2536 f7bb
00000040: 8266 633c

weight f4 [16, 17]
-0.0368241 -0.08259167 -0.13510293 -0.12344052 -0.0035345952 -0.24791622 -0.1578589 -0.007210679
-0.19455302 -0.6387283 0.14136256 0.16035742 -0.22960292 0.11894242 0.22291702 0.007130458
0.101981804 -0.15436153 -0.022528272 0.42699346 -0.29894608 0.12300602 0.14172098 0.1630207
-0.1409801 0.13954355 0.32707372 -0.059054386 0.0603501 0.23219752 -0.11853316 0.043614347
-0.21318828 -0.09598239 -0.18457581 -0.12386521 0.08699543 0.28876242 0.14638829 0.13126262
0.04899032 0.3201991 0.0019313274 0.17351684 -0.1656054 -0.13478483 -0.03862364 0.32285696
-0.26132917 0.15413259 0.10054013 0.33987156 -0.14015117 0.09821614 0.16969633 -0.1264489
-0.25821775 -0.15742323 0.33002964 -0.1108936 -0.2141301 -0.16389209 -0.14883709 0.09005317
-0.22086664 0.21118411 -0.19222827 -0.10743908 -0.23642439 5.9230537e-05 -0.24584271 0.23572835
-0.07131678 0.0655353 0.17213722 -0.02603413 -0.22869757 0.3618319 -0.12177325 -0.17301
0.073025934 0.19749215 0.06505411 0.008922941 -0.109478734 -0.07075062 0.14998154 -0.06196787
0.119224794 -0.05236247 0.06308548 -0.14829668 0.065801784 0.0096053975 -0.1347938 -0.0052571017
-0.13865688 0.04053885 0.022300182 -0.14512132 -0.18384287 -0.018241676 0.15112945 0.1612586
0.20650105 0.10128284 -0.022957409 0.27111048 -0.1857873 0.13005671 -0.13382496 0.17712323
-0.14088377 0.07066304 0.06869443 0.5538658 0.11866252 0.14110823 -0.030861761 0.2817394
-0.10554585 -0.10860495 0.29430428 -0.0066412827 0.07588649 -0.088453665 -0.15416573 -0.03179392
0.111964144 0.20124434 0.18673202 0.11156713 -0.16866225 0.13283908 -0.031416524 -0.10412231
-0.08771647 -0.07745936 -0.2822677 -0.22771455 0.12130019 0.09701717 -0.039953344 0.31504485
0.14192079 0.27653742 0.08668115 0.16202177 0.22224922 -0.28073192 0.06289162 -0.03289884
0.1869042 0.042504996 0.057564467 0.004069282 0.051348757 -0.03532624 0.23061757 0.002353016
0.5598367 -0.058186203 0.11105748 -0.11057062 -0.22562352 -0.1779227 -0.043264117 -0.05602866
-0.053325374 0.05609707 0.09499566 0.114785776 -0.24327618 0.17591563 0.21109416 -0.14998855
0.37090895 -0.25582722 -0.11630564 -0.010145568 0.16916198 -0.14251563 -0.22906575 0.53278255
0.08311888 -0.12038878 0.17842811 -0.07934403 0.15901068 -0.1890915 0.20157479 0.172482
0.442757 -0.028568959 0.15325244 -0.14646193 -0.3142997 0.07492128 0.16067067 0.21159425
0.24738538 -0.08564558 -0.2191818 0.19487432 -0.08658559 -0.21389763 -0.13710132 -0.14159448
-0.23548165 -0.09388159 0.032965943 0.08852569 0.09541766 0.07719164 0.11484903 0.20551367
0.08451052 0.017709518 -0.026366387 0.09967984 0.09156605 -0.10177917 -0.14769672 0.17288642
0.15981086 -0.2208018 0.046857458 -0.027627893 -0.27691528 -0.10121418 -0.098992646 0.022409206
0.12992983 0.07812257 -0.2709264 0.4379813 -0.13415353 0.19112663 -0.2897843 0.06369014
0.008626172 0.054722115 -0.22339211 -0.07844458 0.25479287 0.43478578 0.23888169 -0.25065205
-0.050637435 0.12613212 0.036774654 -0.09712152 0.29446757 0.06437989 -0.22251901 0.38829026
00000000: ded4 16bd d225 a9bd 6c58 0abe 62ce fcbd
00000010: aba4 67bb c0dd 7dbe c3a5 21be 8f47 ecbb
00000020: e838 47be b383 23bf 59c1 103e bc34 243e
00000030: 071d 6bbe 1598 f33d 5c44 643e 9ea6 e93b
00000040: d6db d03d f310 1ebe 368d b8bc e39e da3e
00000050: 760f 99be 95ea fb3d 4e1f 113e e6ee 263e
00000060: 165d 10be 81e4 0e3e 3576 a73e 03e3 71bd
00000070: ab31 773d 30c5 6d3e 83c1 f2bd f5a4 323d
00000080: 074e 5abe 6a92 c4bd 7101 3dbe 0bad fdbd
00000090: a92a b23d abd8 933e d0e6 153e b569 063e
000000a0: 13aa 483d 23f1 a33e 9824 fd3a 66ae 313e
000000b0: 7694 29be 0905 0abe d233 1ebd 824d a53e
000000c0: f0cc 85be efd4 1d3e fce7 cd3d a503 ae3e
000000d0: ca83 0fbe 8b25 c93d e0c4 2d3e d27b 01be
000000e0: 1e35 84be 8e33 21be a5f9 a83e 2f1c e3bd
000000f0: ec44 5bbe 54d3 27be c068 18be cc6d b83d
00000100: dd2a 62be a640 583e 7dd7 44be 0509 dcbd
00000110: 3c19 72be 4e6e 7838 31be 7bbe c662 713e
00000120: 880e 92bd 5f37 863d bd44 303e 8745 d5bc
00000130: b22f 6abe 0842 b93e 4164 f9bd 8929 31be
00000140: 9f8e 953d 623b 4a3e 173b 853d 8731 123c
00000150: 6336 e0bd b3e5 90bd c394 193e 05d2 7dbd
00000160: 212c f43d 087a 56bd f632 813d 16db 17be
00000170: 16c3 863d f55f 1d3c 6307 0abe c443 acbb
00000180: 12fc 0dbe 110c 263d dfae b63c af9a 14be
00000190: 4e41 3cbe 916f 95bc aec1 1a3e f920 253e
000001a0: 0375 533e 616d cf3d 2d11 bcbc fece 8a3e
000001b0: 073f 3ebe 962d 053e 6909 09be cb5f 353e
000001c0: d643 10be c9b7 903d aaaf 8c3d 26ca 0d3f
000001d0: 5605 f33d ad7e 103e ced1 fcbc 2640 903e
000001e0: 6c28 d8bd 466c debd 0daf 963e 1e9f d9bb
000001f0: 606a 9b3d 3227 b5bd 9fdd 1dbe 573a 02bd
00000200: 754d e53d ff12 4e3e ae36 3f3e 4f7d e43d
00000210: ccb5 2cbe f806 083e 9dae 00bd 143e d5bd
00000220: b1a4 b3bd 03a3 9ebd 6485 90be 012e 69be
00000230: 3c6c f83d f0b0 c63d 1ea6 23bd 8f4d a13e
00000240: af53 113e 5096 8d3e e385 b13d 09e9 253e
00000250: 4d95 633e 18bc 8fbe 52cd 803d efc0 06bd
00000260: d163 3f3e b819 2e3d b8c8 6b3d 9d57 853b
00000270: 1353 523d 3fb2 10bd 0327 6c3e 0f35 1a3b
00000280: 7551 0f3f a854 6ebd 1b72 e33d d972 e2bd
00000290: da09 67be 5e31 36be b735 31bd 4f7e 65bd
000002a0: b56b 5abd 0bc6 653d 168d c23d ce14 eb3d
000002b0: 641d 79be 3a23 343e 1129 583e 9996 19be
000002c0: c7e7 bd3e c9fb 82be a731 eebd 9939 26bc
000002d0: cc38 2d3e 9eef 11be 3690 6abe 7064 083f
000002e0: 3b3a aa3d 658e f6bd dcb5 363e 1f7f a2bd
000002f0: b2d3 223e 34a1 41be 9f69 4e3e 1f9f 303e
00000300: 0cb1 e23e 7309 eabc 35ee 1c3e 1efa 15be
00000310: e4eb a0be 5470 993d da86 243e 2aac 583e
00000320: 9852 7d3e f366 afbd 3271 60be 228d 473e
00000330: c953 b1bd fb07 5bbe 4a64 0cbe 25fe 10be
00000340: 1a22 71be fe44 c0bd 4c07 073d f54c b53d
00000350: 566a c33d a716 9e3d f835 eb3d 2d72 523e
00000360: da13 ad3d 8d13 913c 52fe d7bc f224 cc3d
00000370: fb86 bb3d 9971 d0bd cf3d 17be 2309 313e
00000380: 75a5 233e de19 62be 9bed 3f3d e453 e2bc
00000390: d7c7 8dbe 6149 cfbd a8bc cabd 8393 b73c
000003a0: 530c 053e bafe 9f3d ddb6 8abe 163f e03e
000003b0: 8b5f 09be b3b6 433e 9c5e 94be fa6f 823d
000003c0: ca54 0d3c 4c24 603d e7c0 64be 8da7 a0bd
000003d0: 3674 823e 3e9c de3e 679d 743e 7755 80be
000003e0: 3369 4fbd c728 013e 05a1 163d a6e7 c6bd
000003f0: 74c4 963e 9bd9 833d 06dc 63be fbcd c63e

bias f4 [16]
0.39453575 -0.018951131 0.037993982 0.023172675 0.14616805 -0.20196769 -0.17269263 -0.036492378
-0.09540501 -0.30963895 -0.069066845 -0.52795285 0.069075145 0.09579074 0.3110223 -0.09717847
00000000: 9700 ca3e 673f 9bbc 949f 1b3d 9fd4 bd3c
00000010: 14ad 153e 9ed0 4ebe 56d6 30be 0879 15bd
00000020: b463 c3bd ff88 9ebe eb72 8dbd eb27 07bf
00000030: 4577 8d3d ef2d c43d 513e 9f3e 8105 c7bd

weight f4 [10, 16]
0.2665478 0.017106533 0.02381182 0.2839231 -0.31998628 0.10586196 0.040650122 -0.30214238
-0.09586185 0.09617491 -0.43214178 0.13869214 0.028155165 -0.1709392 0.10860713 0.32491648
-0.12990566 -0.07562345 0.20492616 -0.30592492 0.053034037 -0.12589094 0.09342232 -0.3288097
-0.29762703 0.05823539 -0.0012257769 0.44549465 -0.21761198 -0.30651134 0.084880434 -0.051163383
-0.42361876 0.40811372 -0.25896642 -0.36721075 -0.16769324 -0.08554286 0.036449194 -0.07439493
-0.27313116 -0.12420764 -0.23794964 0.3111642 -0.12590905 0.24086818 0.07433368 0.08950991
0.17292194 -0.16748314 0.07945053 0.0096277045 0.049706277 0.1316256 0.03313608 -0.38915104
-0.40782762 0.09907867 0.11700547 -0.3268962 0.025721138 -0.21001829 0.23883969 0.16079305
-0.07130577 0.22310524 0.25023988 -0.2576354 0.112981796 -0.048096746 0.21182726 0.21188563
-0.41541907 0.083132654 0.092851646 -0.4160534 -0.0658441 -0.23747388 -0.26801947 -0.1594416
-0.70703834 -0.547216 -0.38023102 -0.034729216 0.059707668 -0.17642269 0.18235269 0.15240951
0.41606656 0.26542613 -0.5512483 -0.012110994 -0.21793708 0.25980172 0.28650635 -0.55310714
-0.14656942 0.16768235 -0.034698393 0.040611424 0.04107193 0.003653288 -0.07951397 -0.12949312
0.4379681 0.084728 -0.2764703 -0.016630938 0.062582195 -0.18496092 0.03230091 0.26949823
0.27224597 -0.25424272 0.13168044 0.38948506 -0.2894817 0.17015404 0.08849883 0.14382534
-0.10023684 -0.49399194 -0.19105749 -0.3239001 0.08634591 0.084683605 0.1739174 -0.39956477
-0.37691632 -0.1618554 -0.41179246 0.019814078 -0.15891807 -0.02974242 0.16062583 0.2530355
0.35215136 -0.10041255 0.15121305 0.41920513 0.1328097 0.010980686 -0.35261476 0.4166867
0.36218905 -0.1453762 -0.09751805 -0.046573035 0.46315458 -0.13847584 -0.25030106 0.10004035
0.057991315 -0.64850867 0.32257676 -0.37644994 0.007228384 0.124657564 0.18730037 -0.17769328
00000000: f478 883e 0023 8c3c 0211 c33c 5e5e 913e
00000010: 3ed5 a3be 28ce d83d be80 263d 68b2 9abe
00000020: 3853 c4bd 5af7 c43d b041 ddbe 5005 0e3e
00000030: a9a5 e63c b00a 2fbe 6a6d de3d 745b a63e
00000040: fd05 05be 78e0 9abd 2ad8 513e 31a2 9cbe
00000050: 383a 593d 8ee9 00be 3454 bf3d bf59 a8be
00000060: 9262 98be 3b88 6e3d 3faa a0ba e017 e43e
00000070: add5 5ebe 0eef 9cbe cbd5 ad3d b290 51bd
00000080: 8fe4 d8be 48f4 d03e 3f97 84be 0c03 bcbe
00000090: c7b7 2bbe 1831 afbd c04b 153d 5e5c 98bd
000000a0: d9d7 8bbe 9360 febd 12a9 73be ea50 9f3e
000000b0: 4dee 00be 26a6 763e 423c 983d f950 b73d
000000c0: 7312 313e b380 2bbe f6b6 a23d 85bd 1d3c
000000d0: cf98 4b3d dcc8 063e b3b9 073d ce3e c7be
000000e0: c8ce d0be c2e9 ca3d 90a0 ef3d f05e a7be
000000f0: 23b5 d23c 090f 57be 6492 743e efa6 243e
00000100: c208 92bd b375 643e 711f 803e cae8 83be
00000110: 0063 e73d 1801 45bd 3fe9 583e 8cf8 583e
00000120: cfb1 d4be 7441 aa3d 0129 be3d f404 d5be
00000130: 46d9 86bd 5a2c 73be d939 89be a944 23be
00000140: 7700 35bf 5916 0cbf a4ad c2be 3940 0ebd
00000150: 0790 743d 26a8 34be aaba 3a3e 3d11 1c3e
00000160: ad06 d53e efe5 873e 9c1e 0dbf 316d 46bc
00000170: e62a 5fbe bb04 853e f6b0 923e 6e98 0dbf
00000180: 4b16 16be ecb4 2b3e e71f 0ebd 2a58 263d
00000190: 0a3b 283d 006c 6f3b 38d8 a2bd d899 04be
000001a0: 5b3d e03e e085 ad3d 848d 8dbe 9b3d 88bc
000001b0: 182b 803d 6566 3dbe f64d 043d acfb 893e
000001c0: d363 8b3e 1a2c 82be 3dd7 063e 966a c73e
000001d0: f236 94be dc3c 2e3e e03e b53d f346 133e
000001e0: f948 cdbd 83ec fcbe 93a4 43be 3cd6 a5be
000001f0: 20d6 b03d 996e ad3d 6717 323e c193 ccbe
00000200: 2dfb c0be 6cbd 25be 76d6 d2be 2251 a23c
00000210: 6bbb 22be 60a6 f3bc 197b 243e de8d 813e
00000220: 2f4d b43e 18a5 cdbd 98d7 1a3e 0ea2 d63e
00000230: 44ff 073e 56e8 333c ec89 b4be f657 d53e
00000240: d870 b93e 80dd 14be 8bb7 c7bd 5ec3 3ebd
00000250: 9922 ed3e 9ccc 0dbe 7627 80be f4e1 cc3d
00000260: 4d88 6d3d aa04 26bf c828 a53e 0cbe c0be
00000270: 14dc ec3b 774c ff3d abcb 3f3e 3af5 35be

bias f4 [10]
0.055340387 -0.3087187 0.2886236 -0.14415894 -0.28375632 -0.32028058 0.3141463 0.3853692
0.16961627 0.31641155
00000000: 9aac 623d 6110 9ebe 79c6 933e 679e 13be
00000010: 8248 91be d1fb a3be c9d7 a03e 1d4f c53e
00000020: e3af 2d3e b200 a23e
