HW1/classification/CNN_fashionMNIST_150_epochs.pt (torch, 158087 bytes, 10 tensors)

weight f4 [3, 1, 4, 4]
0	0xbe6990c0	-0.22809124
1	0xbceb3533	-0.02871189
2	0xbe87169f	-0.26384446
3	0xbbd1894b	-0.0063945404
4	0xbe36532d	-0.17805167
5	0xbd5089a2	-0.050912507
6	0xbea4a0b4	-0.32153857
7	0x3db5f50a	0.08884628
8	0x3d218fd6	0.039443813
9	0x3e0ca544	0.13734919
10	0x3e05664e	0.13027307
11	0xbea7eac3	-0.32796296
12	0x3eb817f3	0.35955772
13	0x3e5a20b7	0.21301542
14	0x3e07f862	0.13278344
15	0xbdc816cc	-0.09769973
16	0xbc68db8b	-0.014212499
17	0xbd534d7d	-0.05158757
18	0xbd8dcd82	-0.06923963
19	0x3e6bc22c	0.2302329
20	0xbaf9a6ce	-0.0019046904
21	0xbed7eddf	-0.4217367
22	0xbdba5f2d	-0.091001846
23	0x3f005348	0.5012708
24	0xbe8c3984	-0.2738763
25	0xbea6af0d	-0.32555428
26	0x3daa09dd	0.083026625
27	0x3eaf9906	0.34296435
28	0xbe42b85b	-0.19015639
29	0xbe9addce	-0.3024735
30	0xbbb3fd0b	-0.0054928116
31	0x3e933858	0.28753924
32	0xbd26c229	-0.04071251
33	0x3e3b726a	0.18305364
34	0x3eac9e55	0.33714548
35	0x3f39f009	0.7263189
36	0x3dcf1caa	0.10112889
37	0x3ed3aedf	0.41344354
38	0x3ecb44c4	0.39700902
39	0x3e912fc3	0.28356752
40	0x3e955fc0	0.29174614
41	0x3ef65273	0.4810978
42	0x3e03623b	0.1283044
43	0x3cb630d7	0.022240086
44	0x3e37e22e	0.17957374
45	0x3e506268	0.20350039
46	0x3e0ec597	0.13942562
47	0x3e0e7cac	0.13914746

bias f4 [3]
0	0x3ecd5de9	0.4011071
1	0x3e972fd3	0.29528674
2	0xbc0593ff	-0.008152961

weight f4 [4, 3, 2, 2]
0	0x3ca019aa	0.019543488
1	0x3cbd0842	0.023075227
2	0xbe9a3089	-0.30115154
3	0x3d154bf0	0.036449373
4	0x3f234680	0.6377945
5	0x3f2db710	0.67857456
6	0x3f5acb44	0.8546641
7	0x3f4e57d3	0.8060276
8	0x3e9280b4	0.28613818
9	0xbe17632e	-0.14783928
10	0x3e88f142	0.26746565
11	0x3d6e1e1f	0.058134194
12	0xbf2dfd97	-0.6796507
13	0xbe86b276	-0.2630803
14	0xbf56f39a	-0.83965456
15	0xbf14558f	-0.5794305
16	0xbf477e36	-0.7792696
17	0xbf2b111e	-0.66822994
18	0xbee2cc3d	-0.44296446
19	0xbed2358f	-0.41056487
20	0x3eab0bb8	0.33407378
21	0x3dee554a	0.11637361
22	0x3e56f2ca	0.20991054
23	0x3cf20dc8	0.029547587
24	0x3f0a36bb	0.5398976
25	0x3f1faff2	0.62377846
26	0x3e4d77be	0.2006521
27	0x3f201169	0.62526566
28	0x3ec75de8	0.38938832
29	0x3f1a3929	0.6024347
30	0xbdfc7360	-0.123266935
31	0x3cc83cba	0.02444302
32	0x3e979110	0.2960286
33	0x3d8dc9e8	0.06923276
34	0x3e56af4d	0.2096531
35	0x3e849975	0.25898328
36	0xbdc2b0fe	-0.09506415
37	0x3eb72d87	0.35776922
38	0x3d2aaec0	0.04167056
39	0x3eb5af85	0.35485473
40	0xbf172228	-0.59036493
41	0xbe325b5d	-0.17417665
42	0xbefc5709	-0.49285153
43	0x3e5ed5a1	0.2176118
44	0xba66c7b2	-0.00088035606
45	0x3e4c979b	0.19979708
46	0x3ec9f626	0.3944561
47	0x3eef5bc3	0.46749696

bias f4 [4]
0	0xbe8909a0	-0.26765156
1	0xbe8eb2a3	-0.27870664
2	0x3dd015ad	0.10160384
3	0x3ccce1f9	0.025010096

weight f4 [17, 1936]
0	0xbc991bac	-0.018689953
1	0xbbaec2df	-0.005333289
2	0xbccbd6c6	-0.024882685
3	0x3c4869f8	0.012232296
4	0xbcc4b97d	-0.024014229
5	0xbcdd3825	-0.02700431
6	0xbcae093e	-0.021244641
7	0x3c6c91f5	0.014439096
8	0xbccf1e2b	-0.02528294
9	0x3c446d33	0.011988926
10	0x3c2fe8f1	0.01073669
11	0xbc818e03	-0.015814787
12	0xbc395e48	-0.011313982
13	0x3c65b0a0	0.014019161
14	0xbcce009c	-0.025146775
15	0x3b985b93	0.0046495884
16	0xbc2a0e25	-0.010379349
17	0xbc15eb11	-0.0091502825
18	0xbbc6ca20	-0.0060665756
19	0x3ba5f71c	0.005064858
20	0xbc651962	-0.0139831025
21	0xbbb72da1	-0.005590156
22	0xbc9e2a8d	-0.0193074
23	0xbc0a2c09	-0.00843335
24	0x3c294b65	0.010332917
25	0xbc91ffa1	-0.017822089
26	0xbc4f4cc9	-0.012652584
27	0xbc4f422c	-0.012650054
28	0x3b680847	0.0035405324
29	0xbc86ed80	-0.01647067
30	0xbc043901	-0.008070231
31	0xbc9997e9	-0.018749194
32	0xbc3d7aa5	-0.011564885
33	0x3c396297	0.01131501
34	0xbce1009c	-0.02746611
35	0xbcd6ddf1	-0.026228877
36	0x3c4fd0dc	0.012684073
37	0xbc87f476	-0.01659606
38	0xbb2db899	-0.0026507734
39	0xbc6eff3d	-0.014587221
40	0xbc08df77	-0.008354059
41	0x3bf7b7ea	0.007559766
42	0xbce11b3c	-0.027478807
43	0xbb9e0659	-0.004822534
44	0xbbaefaad	-0.0053399415
45	0x3c7a475d	0.015275803
46	0xbcb5246e	-0.022112098
47	0xbcc17f6d	-0.023620332
48	0xbc11a3a3	-0.008889112
49	0xbc549606	-0.0129752215
50	0x3ba5b6c6	0.0050571887
51	0x3b9dd989	0.004817192
52	0x3ae435ad	0.0017411016
53	0xbcb07fdb	-0.021545341
54	0xbbad17a1	-0.005282358
55	0xbca6af27	-0.020347191
56	0xbc589b03	-0.013220551
57	0x3af40c56	0.0018619399
58	0xbc3b826e	-0.011444671
59	0xbc1cf3b8	-0.009579591
60	0xbc78c04e	-0.015182568
61	0xbc1c57f7	-0.009542457
62	0x3c7b45f9	0.015336507
63	0xbb1ae617	-0.002363568
64	0x3c401771	0.011724339
65	0x3c205b10	0.009787336
66	0x3c530e1c	0.012881782
67	0xbca13d24	-0.019682474
68	0xbcb19012	-0.021675143
69	0xbb79fb2c	-0.0038144095
70	0xbca6b6c3	-0.02035082
71	0xbc5a478e	-0.013322724
72	0x3c868185	0.016419182
73	0xbc50c7f5	-0.012742986
74	0xbc9cef8d	-0.019157195
75	0xbc733b95	-0.014845748
76	0xbb12f216	-0.0022422126
77	0xbb3b5c93	-0.0028589114
78	0xbcdbb18d	-0.026818061
79	0xbc926756	-0.01787154
80	0xbb5b8a4f	-0.0033499186
81	0x3c96e8b0	0.0184215
82	0xbc804cb0	-0.015661567
83	0x3ab986a4	0.0014154506
84	0x3c594dd2	0.013263183
85	0x3c790e40	0.015201151
86	0xbc8f0ae5	-0.01746125
87	0xbcc35162	-0.023842517
88	0xbba637af	-0.005072556
89	0xbc3ebe92	-0.011642115
90	0x3c61752b	0.013760845
91	0xbc3a3f85	-0.011367683
92	0x3bf1125e	0.007356926
93	0x3b5dd5d1	0.0033849368
94	0x3b00f2b2	0.0019675908
95	0x3c0021f3	0.007820594
96	0xbb596925	-0.0033174243
97	0xbc8dcdc0	-0.017310023
98	0xbcdf510f	-0.027260331
99	0xbcb7e69e	-0.022448834
100	0xbb31efa5	-0.0027150896
101	0xbb9f060e	-0.0048530167
102	0x3ccb93de	0.024850782
103	0xbc310de9	-0.010806539
104	0x3ba28c5f	0.004960581
105	0xbcc82755	-0.024432817
106	0x3c57d7d0	0.013174012
107	0x3af1981d	0.0018432174
108	0x3c1e5c04	0.009665493
109	0xbcc0dbb5	-0.023542264
110	0xbc73074c	-0.014833283
111	0xbbda285a	-0.0066576423
112	0x3c652d3f	0.013987838
113	0x3b9c5979	0.004771408
114	0x3c24cdd8	0.010058843
115	0xbbae1ba6	-0.0053133545
116	0x3ce8fd9a	0.02844124
117	0x3c8d5ce5	0.01725621
118	0x3cda11ec	0.026619874
119	0xbc699e8d	-0.014258993
120	0xbc18f891	-0.009336607
121	0x39be48d2	0.0003629388
122	0xbc83988f	-0.016063957
123	0x3b37370e	0.00279564
124	0x3ca86f96	0.02056102
125	0xbc85861b	-0.016299298
126	0x3b36de1e	0.0027903388
127	0xbc3ff3e4	-0.011715863
128	0x3bc40a9e	0.005982711
129	0xbc86b343	-0.0164429
130	0xbc63c307	-0.013901479
131	0x3c073c63	0.008254143
132	0xbc9b15e2	-0.018931333
133	0x3b5985c2	0.0033191298
134	0xbc443204	-0.011974815
135	0x3b2bb818	0.0026202258
136	0xbc99b616	-0.018763583
137	0xbc9ac9fe	-0.018895146
138	0x3c39f880	0.011350751
139	0xbca7dec4	-0.020491965
140	0x3c5ca92f	0.013468071
141	0x3ca856b8	0.020549163
142	0xbc738faa	-0.014865795
143	0xbc130c03	-0.008975032
144	0xbacc1138	-0.0015569096
145	0x3cccd055	0.025001684
146	0xbbdb1abd	-0.006686537
147	0x3ce1bb61	0.02755517
148	0x3c0586d3	0.00814982
149	0xbccef17e	-0.025261637
150	0xbc8bf34f	-0.017083792
151	0xbc6b728c	-0.014370572
152	0xbb93f3cc	-0.004515147
153	0xb9b2b848	-0.00034088106
154	0xbc671327	-0.014103687
155	0xbcb2ab8e	-0.02181032
156	0x3b1a5db0	0.0023554377
157	0xbb9512fe	-0.004549383
158	0xbcb2e3f0	-0.021837205
159	0xbcad8006	-0.02117921
160	0x3aea4925	0.0017874582
161	0xbc3cfa9e	-0.011534361
162	0x3c6b5a96	0.014364859
163	0xbc7472ca	-0.014919946
164	0x3be90cc8	0.0071121193
165	0x3cdb99ae	0.026806679
166	0x3c51357a	0.012769097
167	0x3c1af6e0	0.009458274
168	0x3ca07276	0.01958583
169	0x3bd62eb3	0.0065363287
170	0x3af7a583	0.0018893931
171	0x3c0e37f0	0.008680329
172	0xbc388147	-0.011261291
173	0xbcc70df0	-0.024298638
174	0xbc61df72	-0.013786184
175	0xbbe34e5f	-0.006936833
176	0xbb030e2c	-0.001999746
177	0xbcb4577c	-0.022014372
178	0x3b639e20	0.00347317
179	0x3c6d4dd1	0.014483885
180	0x3c240483	0.010010841
181	0xbbf8a189	-0.007587616
182	0x3b89bdad	0.0042035193
183	0x3aadede1	0.0013269746
184	0xbbc100fd	-0.0058900104
185	0xbc205b4c	-0.009787392
186	0x3c8906c6	0.016726863
187	0x39d7476f	0.00041061218
188	0x3c9bd7e3	0.019023841
189	0xbcdd0e54	-0.026984371
190	0x3c35474b	0.011064361
191	0x3a5ff1c7	0.00085428025
192	0x3bc6fc54	0.0060725603
193	0xbcabdd24	-0.020979472
194	0x3bb645c6	0.005562517
195	0xbceb3f0e	-0.02871659
196	0xbab083d1	-0.0013467019
197	0x3905410a	0.00012708097
198	0xbc9bfe3f	-0.019042132
199	0xbcdc061f	-0.026858388
200	0xbb8d9979	-0.004321274
201	0xbc1e7187	-0.009670622
202	0xbcd48ae6	-0.025945138
203	0x3cce311e	0.025169905
204	0x3ca1efcf	0.01976767
205	0x3be0e6cc	0.0068634506
206	0x3ca18fff	0.019721983
207	0x3bfa7354	0.0076431427
208	0x3b63e2ae	0.0034772563
209	0x3ad20c77	0.0016025443
210	0xbb7f7b1a	-0.0038983286
211	0xbc6a08b5	-0.0142843025
212	0xbc7c16f0	-0.015386328
213	0x3c50d6e9	0.012746551
214	0x3c48b371	0.012249813
215	0xbce292a9	-0.027657824
216	0x3c801924	0.015636988
217	0xbc6df2dc	-0.014523234
218	0xbaf3ed78	-0.00186102
219	0xbc69f659	-0.014279925
220	0xbc80ba99	-0.015713977
221	0x3bb6faaa	0.0055840807
222	0x3bead0b2	0.0071659917
223	0xbcaa5d25	-0.020796368
224	0x3c0ff701	0.008786918
225	0x3c9fefdf	0.01952356
226	0x3c1b372f	0.009473606
227	0x3ca23df6	0.019804936
228	0x3c16f76d	0.009214264
229	0x3c93caa9	0.018040972
230	0x3c42c802	0.011888506
231	0x3c367927	0.011137283
232	0x3cb08e88	0.02155234
233	0xbb8ade75	-0.0042379447
234	0x3c8bd531	0.017069431
235	0x3c08d51c	0.0083515905
236	0xbc6c64b6	-0.014428308
237	0xbb31c25b	-0.0027123902
238	0x3b837487	0.004011694
239	0x3c3cd360	0.011525005
240	0x3cad109f	0.02112609
241	0xbc008cd7	-0.007846079
242	0x3be4ca69	0.006982137
243	0x3a1cb85e	0.00059784006
244	0xbaf9b1c5	-0.0019050172
245	0xbc2df687	-0.010617859
246	0xbc878c33	-0.016546344
247	0x3c94cd34	0.018164255
248	0x3c398f5b	0.0113256825
249	0xba1ae1b8	-0.00059082685
250	0xbc25d627	-0.010121859
251	0x3cc4398e	0.023953225
252	0xb979fdc2	-0.00023841023
253	0x3c22735f	0.009915202
254	0xbb380316	-0.0028078011
255	0x3c72f975	0.014829983

bias f4 [17]
0	0x3c1dd11b	0.009632374
1	0xbc9838e2	-0.018581811
2	0x3c1789a4	0.009249125
3	0x3c6a9c9c	0.014319565
4	0xbcb93c65	-0.022611806
5	0xbbd45dd7	-0.006480913
6	0xbce992c3	-0.028512364
7	0x3d471150	0.048600495
8	0xbcbed5a5	-0.023295233
9	0xbc9c2051	-0.019058378
10	0xbc818eb8	-0.015815124
11	0xbc421e39	-0.011848026
12	0xbcd204f0	-0.02563712
13	0xbcb76a85	-0.02238966
14	0x3a89efe9	0.0010523769
15	0xb9058137	-0.00012732005
16	0xbae0a05d	-0.0017137636

weight f4 [16, 17]
0	0xbdac9a14	-0.084278256
1	0xbe3156b8	-0.17318237
2	0xbe7709cb	-0.2412483
3	0x3e14b112	0.14520672
4	0xbe412c3f	-0.18864535
5	0x3e2fab04	0.17155081
6	0xbcd13d44	-0.025541909
7	0x3ee6919e	0.45032972
8	0x3e45678c	0.19277781
9	0xbed61ae9	-0.41817406
10	0x3e46278a	0.1935102
11	0x3cafd63f	0.021464465
12	0x3e554c4e	0.20829889
13	0xbe6578f2	-0.22409418
14	0x3e280abd	0.16410346
15	0xbe140a2e	-0.14457008
16	0x3d082b71	0.033244554
17	0xbe736338	-0.23768318
18	0xbe09e821	-0.13467456
19	0x3e1545ed	0.14577456
20	0xbe0ba28b	-0.13636224
21	0xbe3fbaf3	-0.18723659
22	0x3d00fed5	0.031493027
23	0x3de393e0	0.11112189
24	0xbd263e2e	-0.040586643
25	0xbe5627e3	-0.20913653
26	0xbbc208fe	-0.005921482
27	0x3e5b498d	0.21414776
28	0x3e5d56f8	0.21615207
29	0xbe4dd338	-0.20100105
30	0xbd16efce	-0.03684979
31	0xbe60ee47	-0.21965896
32	0xbe1d6069	-0.15368809
33	0xbd7a68c6	-0.061135076
34	0xbe69d485	-0.22834976
35	0x3d9ba57c	0.07599923
36	0x3e55c4d3	0.20875864
37	0xbe42fc4e	-0.19041559
38	0x3d3ee681	0.046606544
39	0x3e2e5553	0.17024736
40	0xbe5acab4	-0.21366388
41	0xbdbc8670	-0.092053294
42	0xbc9148df	-0.017734943
43	0x3eaf24b3	0.34207687
44	0xbe2a8347	-0.16651641
45	0x3e5a4a93	0.2131751
46	0x3e7b4e70	0.2454164
47	0xbe756dbc	-0.23967642
48	0xbe6e6a6e	-0.23282787
49	0x3eb706f1	0.35747483
50	0x3c27ec12	0.010249155
51	0x3d96a60e	0.07355891
52	0x3d958730	0.073011756
53	0xbda12251	-0.078678735
54	0xbe0fd708	-0.14046872
55	0x3e6151ae	0.22003815
56	0xbcfcf619	-0.030879067
57	0xbe00a13e	-0.12561509
58	0x3e06b31f	0.13154267
59	0x3e461ec0	0.19347668
60	0xbe8287c1	-0.25494197
61	0x3e5f09ce	0.21781084
62	0x3e7ae3c2	0.24500945
63	0x3a94c993	0.0011351578
64	0xbcd61a6d	-0.026135648
65	0xbccaa67e	-0.024737593
66	0x3d7a79de	0.061151378
67	0xbcf076b2	-0.029353473
68	0x3e5109c3	0.2041388
69	0xbe36ff23	-0.17870764
70	0xbe1803c3	-0.14845185
71	0x3de965df	0.113963835
72	0x3dd789ea	0.10524352
73	0x3de1157c	0.10990426
74	0x3c9ee370	0.01939556
75	0xbc605f9c	-0.01369467
76	0xbe5d7aa6	-0.21628818
77	0xbecdf264	-0.40223992
78	0x3e350bf0	0.17680335
79	0xbd70c935	-0.058785636
80	0x3d8fa610	0.07014096
81	0xbdb1bbe1	-0.08678413
82	0xbdd31ba7	-0.10308009
83	0x3eb1e22e	0.34742874
84	0xbe5716e1	-0.21004821
85	0x3e0e1ee9	0.13878979
86	0xbe55771b	-0.20846216
87	0x3e20e910	0.15713906
88	0x3e59e3ea	0.21278349
89	0x3d0e71ae	0.034776382
90	0x3e1e55c3	0.15462403
91	0xbdc5744c	-0.096413225
92	0x3ee8750c	0.454018
93	0x3e5c19df	0.21494244
94	0x3e0b7ac1	0.13621046
95	0x3ce92f0e	0.02846482
96	0xbdaa7517	-0.08323114
97	0x3d882892	0.06648363
98	0xbc452aca	-0.0120341275
99	0xbd0812a2	-0.033220895
100	0xbe447652	-0.1918576
101	0x3c89a933	0.016804313
102	0x3d7a6af7	0.061137166
103	0x3d208b0a	0.039195098
104	0x3e65e202	0.22449496
105	0x3e1977cb	0.14987104
106	0x3d9e13e1	0.07718635
107	0x3d050937	0.03247949
108	0x3b70e353	0.003675659
109	0xbe1d8b7c	-0.1538524
110	0x3e5a5315	0.21320756
111	0x3dc2965a	0.095013335
112	0xbe46ea50	-0.1942532
113	0x3e081722	0.13290074
114	0x3e5ca2f5	0.21546538
115	0xbde77bf5	-0.1130294
116	0xbe6dd4bf	-0.23225687
117	0x3ecfa230	0.40553427
118	0x3de2a385	0.11066345
119	0xbe0052d3	-0.12531595
120	0x3e688e5e	0.22710559
121	0xbe67e557	-0.2264608
122	0x3db4aed1	0.08822406
123	0x3e2e8892	0.17044285
124	0x3e5b1081	0.21393014
125	0xbd9cab37	-0.07649844
126	0xbd896f22	-0.0671065
127	0xbcc92686	-0.024554502
128	0x3ebf3465	0.3734466
129	0xbdd656a9	-0.10465748
130	0xbe4bbba0	-0.19895792
131	0xbc95ec91	-0.01830128
132	0x3e0bc907	0.13650905
133	0xbe43dfa8	-0.19128287
134	0xbee682d4	-0.4502169
135	0x3d480993	0.048837256
136	0xbd5c8751	-0.053839985
137	0xbe471166	-0.1944023
138	0xbe067932	-0.1313217
139	0xbe51baa0	-0.20481348
140	0xbdd24f25	-0.10269002
141	0x3dea149f	0.114297144
142	0xbde4bfc3	-0.11169388
143	0x3ed571c8	0.4168837
144	0x3da42606	0.08015065
145	0xbd26433b	-0.04059146
146	0xbde9482e	-0.1139072
147	0xbe2ac170	-0.16675353
148	0x3e79aa7b	0.2438144
149	0xbe053001	-0.13006593
150	0x3e647061	0.22308494
151	0xbe7b4916	-0.24539599
152	0x3de18356	0.110113785
153	0xbe255b06	-0.16148004
154	0x3d774d3a	0.060376383
155	0xbd9b91ed	-0.075961925
156	0xbd5e5a52	-0.054285355
157	0x3e51f53e	0.20503709
158	0x3d656574	0.056004956
159	0xbe325d2c	-0.17418355
160	0x3e30dfb0	0.1727283
161	0x3dbe684f	0.09297239
162	0x3e8c4138	0.27393508
163	0x3e25e161	0.16199256
164	0x3e18d927	0.14926587
165	0xbdccfd12	-0.10009207
166	0x3e2c85d8	0.16847932
167	0xbe4ad4de	-0.19807765
168	0xbca5295f	-0.020161329
169	0xbe15940d	-0.14607258
170	0xbdbb201b	-0.09136983
171	0xbe04b439	-0.12959374
172	0x3dce77d9	0.10081453
173	0x3e63956c	0.22224969
174	0x3df08501	0.117441185
175	0x3ae41d3a	0.001740373
176	0xbe57383d	-0.21017547
177	0x3e5809dc	0.21097511
178	0xbd629031	-0.055313293
179	0xbf36e190	-0.7143793
180	0xbc8e75de	-0.017390188
181	0xbe12b0f3	-0.14325313
182	0x3e128701	0.14309312
183	0xbe129f84	-0.14318663
184	0xbdfff508	-0.12497908
185	0xbd8dc36b	-0.06922039
186	0xbe4405dc	-0.1914286
187	0xbe33ba41	-0.17551519
188	0x3e61b11d	0.2204022
189	0x3e2ce74b	0.16885106
190	0x3cbf0d60	0.023321807
191	0x3e073b51	0.13206221
192	0x3dc1e428	0.094673455
193	0x3cc5a43c	0.024126165
194	0xbe553f10	-0.20824838
195	0x3d492cc8	0.049114972
196	0x3e3620bc	0.17785925
197	0x3e328d6d	0.17436762
198	0xbe1e7efc	-0.15478128
199	0x3e69e3dc	0.22840828
200	0x3e589940	0.2115221
201	0x390bd261	0.00013334445
202	0x3ea079ac	0.31342828
203	0x3e324682	0.17409709
204	0x3d90926c	0.07059178
205	0xbc1994f7	-0.009373895
206	0xbe59ddaa	-0.21275964
207	0xbe31b3e6	-0.17353782
208	0x3d982066	0.074280545
209	0x3ba5e5ed	0.0050628097
210	0xbe0a2ff5	-0.13494857
211	0x3e0eaeca	0.13933864
212	0xbd108eb1	-0.03529233
213	0x3dc5481b	0.09632894
214	0xbe4f3825	-0.20236261
215	0xbe657684	-0.22408491
216	0x3e66b05f	0.22528218
217	0xbc51f2fc	-0.01281428
218	0xbe10059f	-0.14064644
219	0x3ea19f40	0.3156681
220	0xbd5cbda3	-0.05389179
221	0x3e2a7314	0.16645461
222	0xbdb7e2f0	-0.08978832
223	0x3daf24ee	0.08551966
224	0xbdec8a5d	-0.11549828
225	0xbe6cc61a	-0.23122445
226	0xbe2dc270	-0.16968703
227	0xbddf92c4	-0.10916665
228	0x3e994520	0.2993555
229	0xbb545f1c	-0.0032405322
230	0xbe27edf1	-0.16399361
231	0x3d65c13c	0.056092486
232	0x3dd1fa92	0.102528706
233	0x3e1e2ef7	0.15447603
234	0xbd205382	-0.03914214
235	0x3d285a66	0.041101836
236	0x3e74f8ae	0.23922989
237	0xbe2adfe6	-0.16686973
238	0x3e68c119	0.22729911
239	0x3d41a877	0.0472798
240	0xbe454084	-0.19262892
241	0xbc89906a	-0.016792495
242	0xbe194e6f	-0.14971326
243	0xbd723cef	-0.059140142
244	0x3d771614	0.06032379
245	0xbd173186	-0.036912464
246	0x3e3233a4	0.17402512
247	0xbeb7d313	-0.35903224
248	0x3e6d9d81	0.23204614
249	0xbe304581	-0.17214014
250	0xbdd91bd8	-0.10601014
251	0xbb9198a2	-0.004443244
252	0xbe1867f6	-0.14883408
253	0x3ec8c13d	0.3920993
254	0x3e205ce4	0.15660435
255	0xbdf39b04	-0.11894801

bias f4 [16]
0	0xbf691de2	-0.9106122
1	0xbe758fcb	-0.23980634
2	0xbf4313bb	-0.7620198
3	0x3f833e10	1.0253315
4	0x3f4d6240	0.8022804
5	0x3ec093f3	0.37612876
6	0x3f35e113	0.7104656
7	0x3fb56b04	1.4173284
8	0x3f45f36d	0.77324563
9	0xbf4ca386	-0.79937017
10	0x3f7f798b	0.99794835
11	0xbecc0f08	-0.39855218
12	0xbf029eb4	-0.5102341
13	0xbf94658a	-1.1593487
14	0xbcae7869	-0.02129765
15	0xbf41556a	-0.75520957

weight f4 [10, 16]
0	0x3f22f1f9	0.6365047
1	0x3dba08a0	0.09083676
2	0x3e48a13e	0.19592759
3	0xbc872d9b	-0.016501239
4	0xbe7964c9	-0.24354853
5	0xbeb7f108	-0.3592608
6	0x3e374fbe	0.17901513
7	0xbf84f350	-1.0386753
8	0xbdd99362	-0.10623814
9	0xbe1e0f4e	-0.15435526
10	0xbee1223d	-0.43971434
11	0x3ebbfbd8	0.3671558
12	0x3dabc2ac	0.0838674
13	0xbe92992e	-0.28632492
14	0x3e3b9070	0.18316817
15	0x3e197d63	0.14989237
16	0xbeb5d50f	-0.35514113
17	0xbe183a78	-0.14866054
18	0xbdebde14	-0.115169674
19	0x3ee60778	0.44927573
20	0x3ec22ea1	0.379262
21	0x3da21e97	0.07915991
22	0x3ebb6455	0.36599985
23	0x3fa6cc2f	1.3031062
24	0xbf30f01b	-0.6911637
25	0xbea46c8f	-0.32114074
26	0x3f599814	0.8499768
27	0xbe71148b	-0.23542993
28	0xbe2b058a	-0.16701332
29	0x3d2186b8	0.03943512
30	0x3efd758b	0.4950374
31	0xbe450a16	-0.19242129
32	0xbeaf2fa7	-0.34216043
33	0xbdff4ce4	-0.124658376
34	0x3e3196f6	0.17342743
35	0xbcb6a087	-0.022293342
36	0xbdd3d366	-0.103430554
37	0x3ddc0f30	0.10745084
38	0x3cf020ab	0.029312452
39	0xbf263011	-0.64917094
40	0xbf3e2a54	-0.7428334
41	0x3a80776a	0.0009801213
42	0x3cbc214d	0.022965098
43	0x3e301fa8	0.17199576
44	0xbcb646e2	-0.022250596
45	0x3dad7339	0.084692426
46	0x3d40cfde	0.047073238
47	0x3e3c85dd	0.1841044
48	0xbec141d4	-0.37745535
49	0x3e0993ec	0.13435334
50	0x3e38be85	0.18041427
51	0x3ea0d400	0.31411743
52	0x3f0164ca	0.50544417
53	0xbec29ca1	-0.38010123
54	0x3e91c0a2	0.2846728
55	0x3e1e6a2f	0.15470193
56	0x3cc4b774	0.024013259
57	0xbea77465	-0.3270599
58	0xbf22ea8b	-0.63639134
59	0x3ec38bc2	0.38192564
60	0xbe732d42	-0.23747733
61	0xbe279c4e	-0.1636822
62	0x3e90488a	0.28180343
63	0x3d6a8fd2	0.057266064
64	0xbf44b50b	-0.7683875
65	0xbe5d2a24	-0.21598107
66	0x3de0dcb5	0.109795965
67	0xbed7eb03	-0.42171487
68	0xbdb60e2f	-0.08889424
69	0xbe6f21a0	-0.2335267
70	0x3de178a6	0.1100934
71	0xbdd102f9	-0.10205645
72	0xbdb87350	-0.09006369
73	0x3e4f1e35	0.20226367
74	0xbdc4beb2	-0.09606685
75	0x3d80ef5c	0.06295654
76	0xbd811f78	-0.0630483
77	0x3e46bf17	0.19408832
78	0x3e42fdb2	0.1904209
79	0x3c39b685	0.01133502
80	0x3de98416	0.114021465
81	0xbd43fbc8	-0.04784754
82	0xbef9eddb	-0.48814282
83	0xbd63762d	-0.055532623
84	0x3d8fab54	0.070151
85	0x3eafc965	0.3433334
86	0x3e1a7d3e	0.15086839
87	0x3e5216e1	0.2051654
88	0x3e88f537	0.26749584
89	0x3e007157	0.12543236
90	0x3daff364	0.08591345
91	0xbf5c8125	-0.8613456
92	0xbce6ad4f	-0.028158812
93	0xbea0592b	-0.3131803
94	0x3e7ff042	0.24993995
95	0xbe481596	-0.19539484
96	0xbc7c2f54	-0.015392143
97	0xbdf100dc	-0.11767742
98	0x3e27c237	0.16382681
99	0xbe5ba1e8	-0.21448481
100	0xbe4879ee	-0.19577762
101	0xbea1f12c	-0.31629312
102	0x3e2cad43	0.16862969
103	0xbf50e585	-0.8160022
104	0xbd079300	-0.033099174
105	0x3db5025a	0.08838339
106	0xbe4429ff	-0.19156645
107	0x3dd31cca	0.103082255
108	0x3d8e1d03	0.06939127
109	0xbdd9ecf7	-0.106409006
110	0x3da1876d	0.078871585
111	0x3e54bb70	0.20774627
112	0x3ea9e0b5	0.3317925
113	0xbe3dfcc2	-0.1855345
114	0xbef222fe	-0.47292322
115	0x3e7563bc	0.23963827
116	0xbebfc9dc	-0.37458694
117	0x3e735ef9	0.23766698
118	0xbebcdd04	-0.36887372
119	0xbfc117bb	-1.5085367
120	0x3eaf517c	0.34241855
121	0xbe83ef44	-0.25768483
122	0x3f00ce8f	0.50315183
123	0x3f496f5d	0.7868555
124	0xbe684d1f	-0.2268567
125	0xba9aa222	-0.0011797587
126	0xbe92d4f6	-0.286781
127	0xbecac113	-0.3960043
128	0xbecd1a34	-0.40059054
129	0x3e4cfee0	0.20019102
130	0xbd89afe7	-0.06723004
131	0xbec775a3	-0.38956937
132	0xbe771b1e	-0.24131438
133	0x3e733a27	0.23752652
134	0x3daecf47	0.08535629
135	0xbfc36448	-1.5264978
136	0xbd5700e4	-0.052491084
137	0x3e5e6417	0.21717869
138	0x3c0454c1	0.0080768475
139	0xbe952050	-0.29126215
140	0x3e934dff	0.28770444
141	0xbe12e9b4	-0.14346963
142	0xbf2213b0	-0.6331129
143	0xbd47049a	-0.048588373
144	0x3e5559b9	0.20835008
145	0xbc81bfa0	-0.015838444
146	0xbd904180	-0.07043743
147	0xbe98ed27	-0.29868433
148	0xbf86fbd3	-1.0545601
149	0x3e87537f	0.2643089
150	0xbf5a7964	-0.8534148
151	0xbfe1d4d8	-1.764308
152	0x3e1c8f36	0.15289006
153	0x3d5fb68c	0.05461745
154	0x3e899f52	0.26879364
155	0xbe413e64	-0.18871456
156	0x3cfd1060	0.030891597
157	0x3e7b4d43	0.24541192
158	0xbf3aeebc	-0.7302053
159	0xbe3fb421	-0.18721057

bias f4 [10]
0	0xbdd582d4	-0.10425344
1	0x3eb82194	0.35963118
2	0xbfaf55c3	-1.3698047
3	0x3f8ca9e8	1.0989351
4	0xbf12f91c	-0.5741136
5	0x3dbe497e	0.09291361
6	0xbeb45bbb	-0.35226235
7	0x3f227aed	0.6346882
8	0x3f563756	0.83678186
9	0xbf93ec70	-1.155653
