HW1/classification/CNN_model.pt (torch, 108551 bytes, 10 tensors)

weight f4 [3, 1, 6, 6]
00000000: 1c78 8d3d 8e81 4f3e f55b a73d 5a22 0d3e
00000010: 0340 d0bd 4704 8a3c 7a0b c7bc b165 573e
00000020: 3f9a 273e 044a e03d a79e 7ebb a932 30be
00000030: 0842 613e 0d47 5d3e 508c 283e 8cd5 abbd
00000040: 9b89 05be e18d b53d a0f3 743d 8f25 6b3d
00000050: 6e0e dd3d a72b 43be e7c4 72be 9fa2 563d
00000060: 33a4 66bd d6d1 da3c 7ac2 2f3e 90e9 8d3c
00000070: 56c1 19be b296 04be 9882 e93c 3391 063e
00000080: fb03 573e 27a9 90bd aeba 85be 1d2e aabc
00000090: 73bc 1dbe 5ac8 07be fa4c a83d 8d77 c53d
000000a0: d789 1c3e 21c3 753e 6cd1 84bd 9465 29bd
000000b0: cbe7 ac3d 8815 813d a66f 273e b78d 2b3e
000000c0: e4f6 293d 5a28 b43d f8cb abbd 15d9 093e
000000d0: 739b 8b3d 8e2b 2e3d a1cc a6bd f615 81bc
000000e0: 2290 923d b55d 703e 0c6f 7d3e 2cb6 6d3e
000000f0: f891 4fbe 0ba5 043e fe6a 773d 56dc 80bd
00000100: 8b3a 3e3e 207a 5cbd d693 8ebd 3b11 f9bd
00000110: 13af 94bd ffc6 513e 0433 783d 4e01 843e
00000120: a30a 0b3e b86e 4c3e fcaa 823d d1c4 0a3d
00000130: 56f9 323d d79c 8fbd 8c24 883e 0d04 8e3e
00000140: 2a7d 6a3e 9878 f3bd 9363 20be 3274 a03d
00000150: 908f 953d 6eb1 2a3e fd46 273e 51eb 48be
00000160: 4654 2f3b c4f0 32bd eb7d 223e a0f7 eebc
00000170: ef09 a1bd 39fb 3ebe 3ede 093d 160e 16be
00000180: d03c 923d 9024 383e eba5 353e f908 61be
00000190: ecf4 77bd e774 8e3d e9f8 073e 6999 90bc
000001a0: 8783 d23c 2d97 71be c5b9 763d 5f29 36be
0.06907675 0.20264265 0.08171836 0.13782635 -0.10168459 0.016847743 -0.024297465 0.21034886
0.16367434 0.10951617 -0.0038851888 -0.17206825 0.21997845 0.21609135 0.16459775 -0.0839034
-0.13040774 0.08864952 0.05980265 0.057408866 0.10793768 -0.19059621 -0.23707925 0.05240118
-0.056308936 0.026711386 0.1716403 0.017323285 -0.15015158 -0.1294811 0.028504655 0.13141327
0.20997612 -0.07063513 -0.26118988 -0.020773942 -0.15403919 -0.13260022 0.08217807 0.09641943
0.15286957 0.24000217 -0.064852566 -0.041356638 0.084426485 0.06302935 0.16351184 0.16753279
0.04149522 0.08796759 -0.08388513 0.13461716 0.06816759 0.042522006 -0.081444986 -0.015757542
0.071563974 0.23473246 0.24749392 0.23214024 -0.20270526 0.12953584 0.06040477 -0.06292026
0.1857702 -0.053827405 -0.06961791 -0.121614896 -0.07259955 0.20486067 0.060595527 0.25782245
0.13578276 0.19964111 0.06380269 0.033879105 0.043694817 -0.07012337 0.26590383 0.27737466
0.22899309 -0.11888236 -0.15662985 0.078346625 0.07302773 0.16669247 0.16335674 -0.19621016
0.0026753112 -0.043686643 0.15868346 -0.029170811 -0.07863223 -0.18650521 0.033659212 -0.14653811
0.07140505 0.17982697 0.17739074 -0.21976079 -0.06053631 0.06955891 0.13278545 -0.017651277
0.025697483 -0.23592825 0.060235757 -0.1778922

bias f4 [3]
00000000: 9ad5 a8bc f842 80bd 5450 213e
-0.020609666 -0.06262773 0.15753299

weight f4 [4, 3, 3, 3]
00000000: e884 2fbe 25e0 c03d 3425 6e3d 027e f7bd
00000010: 2675 13be 0203 293d 0466 4abe 5e5f f6bd
00000020: b23c 8bbe 9eda e1bd c3b9 2fbd a913 f03d
00000030: 4d28 1dbe 6db2 0abd c81e adbd 3a3e 2cbd
00000040: de1f 2e3e 2231 93bc 994e 1b3d d4fd 093d
00000050: 5a5e 243e 9a54 87bc a3ac 2b3d e9cc 8fbd
00000060: 097c 993c b2f1 453e 7f48 28be 37f7 88be
00000070: 92de 913d 79e7 6cbe ef66 28be 8f1c 1abe
00000080: 4de8 efbc 992b 293d 1832 6bbe 89e9 1e3d
00000090: 7834 c03d a6ed 923e d71a b3bc 57b2 33bd
000000a0: 0f20 c53d 9d06 853d 96d4 553e 9def 5f3e
000000b0: 980c 473e 9087 4bbe 9ed8 87bd be4d 37be
000000c0: e4bd 03be 9649 87bb af92 42be 87ba 43be
000000d0: 68c6 70be 2539 3ebd 163d ab3e eabd 333e
000000e0: aecd 743e 1e39 913e e0ce 983e 6917 46bd
000000f0: 1126 333c f186 163e d7a7 94bd b715 0cbe
00000100: 88f3 88bc c481 2abe f4ee 44be f030 40be
00000110: 4f98 a8bd 311f 70bd 06d8 94be 1c4b 59be
00000120: 1346 323d 2cf2 6e3e 5726 9abd c762 383e
00000130: 5033 923e 8ff2 8d3e 7987 393c 766f 19bd
00000140: 2cfb ba3d 3208 b33d 6a57 963e dd59 953c
00000150: c790 7d3e a355 d43d 593c ce3c de13 173e
00000160: 26c7 143e f478 33bd 038a 16be 17f6 d5bd
00000170: 2824 a73d a3f3 013d 129e 3e3e 8058 bbbd
00000180: c380 c23b ed98 0cbe 56b5 573e ad97 1f3e
00000190: 7a9b 773e 64cc 68bd b64a 993c a207 d63d
000001a0: fede 843e 56bc 3c3e a72a 7a3e 4f8a bf3d
-0.17140543 0.09417752 0.05814095 -0.12084581 -0.14400157 0.041262634 -0.19765478 -0.120299086
-0.27194744 -0.11028026 -0.042901766 0.117225 -0.15347405 -0.033861566 -0.08453137 -0.04205153
0.17004344 -0.017967764 0.037916753 0.033689335 0.16051617 -0.016519833 0.041912686 -0.070215054
0.018735902 0.1933048 -0.16433905 -0.2675111 0.0712253 -0.23135175 -0.16445516 -0.15049957
-0.029285574 0.041301344 -0.22968328 0.038796935 0.093850076 0.28696936 -0.021863384 -0.04387125
0.09625255 0.06495402 0.20881876 0.21868749 0.19438398 -0.19875932 -0.06633113 -0.1790075
-0.12865406 -0.004128645 -0.19001268 -0.19114123 -0.23513186 -0.046441216 0.33445042 0.17552915
0.23906586 0.2836389 0.29845333 -0.04836217 0.010934369 0.14699914 -0.072585754 -0.13680159
-0.016717687 -0.16651064 -0.19231778 -0.18768668 -0.082321756 -0.058623496 -0.29071063 -0.21220058
0.04352386 0.23334569 -0.07526844 0.1800643 0.28554773 0.2772412 0.011323803 -0.037459813
0.091299385 0.087417975 0.29363567 0.018231327 0.2476226 0.103678964 0.02517526 0.14753672
0.14529094 -0.04381652 -0.14701085 -0.104473285 0.08161193 0.03172649 0.18614987 -0.091477394
0.0059357597 -0.13730212 0.21065268 0.15585203 0.24180403 -0.056835547 0.018712383 0.104506746
0.2595138 0.1843122 0.24430333 0.09352552

bias f4 [4]
00000000: e858 b83e 235d 4d3e ba8e 833e 9b99 0fbe
0.3600533 0.2005506 0.2569483 -0.1402344

weight f4 [17, 1444]
00000000: 0a61 c5bd 7f40 c5bd bc63 00be 3bf0 e8bd
00000010: a5a9 c7bd 87f0 0abe 01fb d0bd 48f2 c2bd
00000020: 307a 42bd 0115 37bd 57ea 1cbd 5133 48bd
00000030: 7598 b5bd 0a14 a3bd 1c79 f2bd ad5a e5bd
00000040: d619 06be 8f83 02be e422 b0bd fe56 cebd
00000050: f94a 8cbd 554b 91bd 37d9 f1bd d9e0 fabd
00000060: e860 e4bd 20a5 86bd dc7c b4bd 01a0 f1bc
00000070: c38d 17bd 9f3d 59bd 096c 4ebd 6c48 67bd
00000080: de65 a5bd c175 e1bd 9382 14be 958f 12be
00000090: 5de5 cfbd 29c1 b3bd b303 d6bd 521b d4bd
000000a0: 2efe 9bbd 9895 c2bd 12c0 bbbd 6bda fdbd
000000b0: ccb1 b0bd 0dfd 47bd a4e1 23bd d046 a8bc
000000c0: d6af bfbc f844 39bd 30af fbbc cf0b 04bd
000000d0: 612b b7bd 90e4 00be 8f1c 14be e83d f8bd
000000e0: 7b0f d0bd 1c49 dcbd 7401 99bd 3e42 88bd
000000f0: 0696 9abd 9f58 c9bd 8a5a c9bd 00a6 cbbd
00000100: 8bbb b6bd e2eb 8abd c097 dfbc dd89 55bd
00000110: 7cef 16bd d1fc 93bd 087a 46bd 7b81 bfbd
00000120: d1e8 c6bd c017 08be 1234 b5bd b4aa febd
00000130: 6407 d0bd 908f b7bd 3004 bfbd 0af2 dabd
00000140: 6e4b a7bd 5ab5 c6bd 9217 f5bd 9f11 59bd
00000150: d35d 07bd 056d 1ebd 10fc ebbc 1d61 5abd
00000160: 762e 57bd 96b3 4abd 5658 ccbd 357b f7bd
00000170: 5b33 05be 50c8 abbd e40c 60bd 777d f7bd
00000180: e23f 58bd d726 97bd 776b 98bd 5d47 b8bd
00000190: 3cc5 babd ed72 9fbd 641e 6abd 7ca5 89bd
000001a0: 2164 e8bc 91d6 12bd 844a 86bd 253f 3dbd
000001b0: 8e17 6ebd a105 8bbd 639c b9bd 7b6e a2bd
000001c0: 4152 36bd db75 11bd 8d09 a8bd a940 93bd
000001d0: fb03 97bd 99b3 2fbd a958 0abd 684a 5bbd
000001e0: 99f1 7cbd cec1 a4bd 2db8 1bbd 3604 29bd
000001f0: d6d0 5bbd 5269 b9bd 7a06 bebd 9e25 73bd
00000200: f2a2 97bd e0c4 acbd f6fa 99bd 1a4a 9fbc
00000210: a58b 99bc c8a3 b1bd 01b7 8dbd 15b7 cebc
00000220: df05 6fbd dfb3 43bd 7a60 45bd 44d5 91bd
00000230: 206f 83bd 0ba4 eabc 290a bbbc 23c0 36bd
00000240: 9de0 abbd f418 ddbd 3a4a b3bd 85cb 94bd
00000250: 0a7d d3bd a968 70bd 066c d9bc 3c34 9e3b
00000260: 53d1 cabd 67fd 8bbd 3ea6 b0bc 0742 c1bc
00000270: 8612 96bc a65b db3b 2197 45bd 0b1e 54bd
00000280: d025 67bd e967 56bd 71cb 97bd 363b ccbd
00000290: d279 ccbd 9019 b1bd de1d d7bd 5f05 c8bd
000002a0: 752e 8ebd a5d9 22bd 61c8 8dbc 2b8b 90bd
000002b0: cbd1 e9bc 3627 503c 9bce cd3c bea5 1f3d
000002c0: 2ae3 663d de69 25bd 98eb c4bc fef9 a4bd
000002d0: 835b 7ebd 89ea d3bd cb8c 01be bac1 ddbd
000002e0: a3d3 b6bd df0c dcbd 6a29 96bd 8676 32bd
000002f0: 5778 b8bb 4839 11bd f1ba c9bd 5048 4abd
00000300: 8a3c 21bc dc53 31bc 3145 ef3c ec3d 073d
00000310: 000a b0bc aa46 35bd 6317 93bd 2c22 92bd
00000320: bb89 8cbd 267e d3bd 1da5 b3bd e62b a0bd
00000330: df59 43bd d337 aabd aebc 86bd c30f efba
00000340: bf7f b4bc 7397 8ebd d643 25bd 27f4 133d
00000350: 9a36 423c 7c2e 0d3d bd0b 733d 5c72 4d3b
00000360: 57ef 88bd 8342 0ebd 4656 45bd 06c6 cebd
00000370: 5b09 f5bd 75af b7bd 4dd4 d6bd eada bbbd
00000380: 807b 4ebd a9d7 e7bc 6f20 b53c 440a 4a3c
00000390: 0829 9bbd 3795 ecbc 53b6 383d 87d6 5f3d
000003a0: 31f9 283d b9e9 4c3d 8246 97bc 1850 28bd
000003b0: 6e73 52bd cfc9 0dbd 71d1 3cbd bb3d c5bd
000003c0: b60f 7cbd c0b3 88bd bc0f 47bd 78ec 48bd
000003d0: d630 fc3c d09d f53c d5cb 8f3c 810b b2bd
000003e0: 9763 063d f539 743d 751a 543d 8af9 9d3d
000003f0: 1314 9c3d fcd1 e8bb 2389 9bbc c80b 82bd
-0.09637649 -0.09631442 -0.12538046 -0.11373945 -0.09749154 -0.13568316 -0.10204125 -0.09518868
-0.04747981 -0.044697765 -0.03830942 -0.048877064 -0.088669695 -0.079628065 -0.11839506 -0.11198936
-0.13095793 -0.12745498 -0.08600405 -0.10075186 -0.068502374 -0.070944466 -0.118090086 -0.122499175
-0.11151296 -0.06574464 -0.088128775 -0.029495241 -0.03700043 -0.053037282 -0.050396 -0.05646555
-0.0807607 -0.11008788 -0.14502935 -0.14312585 -0.101511694 -0.08777077 -0.10449924 -0.103567734
-0.0761684 -0.09501189 -0.09167494 -0.123951755 -0.08627662 -0.048825312 -0.04001011 -0.020541579
-0.023399275 -0.04523179 -0.030723184 -0.032237824 -0.08943821 -0.1258719 -0.14464019 -0.12121183
-0.10159203 -0.10756132 -0.0747098 -0.0665326 -0.07548146 -0.09831356 -0.09831722 -0.09943771
-0.0892249 -0.06783272 -0.02729404 -0.05213343 -0.036849484 -0.07225955 -0.04845622 -0.09350868
-0.09712375 -0.1329031 -0.08847822 -0.12434903 -0.1015766 -0.08962929 -0.093269706 -0.106906965
-0.08168684 -0.09702559 -0.11967386 -0.05299532 -0.033048462 -0.038678188 -0.028806716 -0.05331527
-0.052534543 -0.049487673 -0.09977786 -0.12084047 -0.13007872 -0.08387816 -0.054699793 -0.120844774
-0.0527953 -0.07380455 -0.07442372 -0.089979865 -0.09119651 -0.07785592 -0.05715789 -0.06721017
-0.028368058 -0.035849158 -0.065571815 -0.046202797 -0.058127932 -0.06788183 -0.090630315 -0.07931229
-0.044512037 -0.035512786 -0.08204947 -0.07190067 -0.07373806 -0.042895887 -0.03377596 -0.053537756
-0.061753843 -0.08044778 -0.03801744 -0.04126378 -0.05366596 -0.090532914 -0.09278579 -0.059362046
-0.07404126 -0.084359884 -0.0751857 -0.019444514 -0.018743346 -0.08673817 -0.06919671 -0.025233785
-0.05835521 -0.04777896 -0.04818771 -0.07120755 -0.0641768 -0.028642675 -0.022831993 -0.04461683
-0.08392451 -0.10795775 -0.08754392 -0.07265381 -0.10326584 -0.05869356 -0.026540767 0.004828004
-0.09903207 -0.06835442 -0.021563645 -0.023591055 -0.01831938 0.006694275 -0.04823983 -0.051786464
-0.056432545 -0.05234519 -0.0741185 -0.09972231 -0.09984173 -0.08647454 -0.105037436 -0.097666495
-0.06942455 -0.039758343 -0.017307462 -0.07057794 -0.02854242 0.012704661 0.025122931 0.038976423
0.056368984 -0.040384166 -0.024038121 -0.08055495 -0.06209899 -0.103474684 -0.12651365 -0.10827966
-0.08927085 -0.107446425 -0.07332118 -0.043570064 -0.00562958 -0.03545502 -0.09850109 -0.04938537
-0.009841094 -0.010823216 0.029207798 0.033018038 -0.021489143 -0.044256844 -0.07182195 -0.07135424
-0.068622075 -0.10326795 -0.08771727 -0.07820873 -0.04769313 -0.08311429 -0.065789565 -0.001823895
-0.02203357 -0.069624804 -0.040347897 0.036121514 0.011853838 0.03446816 0.059337366 0.003134868
-0.066862755 -0.0347314 -0.04817798 -0.10096364 -0.11964675 -0.08969013 -0.10489712 -0.09172614
-0.050410748 -0.028301077 0.022110192 0.012331549 -0.075761855 -0.028879745 0.045095753 0.05464795
0.041253272 0.050027583 -0.018466238 -0.04109201 -0.051379614 -0.034616288 -0.046098176 -0.09630915
-0.06153842 -0.066749096 -0.04859899 -0.04905364 0.030785006 0.029982477 0.01755325 -0.086936004
0.03280982 0.059625585 0.051783044 0.077136114 0.07621016 -0.00710511 -0.01898629 -0.06349903

bias f4 [17]
00000000: 5fd6 95bc f6c7 9bbc 5b77 6c3d f641 8b3a
00000010: a517 7cbc 1bb5 e03c 57b4 443c 22f2 af3d
00000020: da76 0a3d b89d 9abc 3fd1 6fbc 349a 9d3c
00000030: 1de5 f83c 2a5b f0bc ab39 c83b 4223 99bb
00000040: 25d6 6ebc
-0.018290697 -0.019016247 0.057731014 0.0010624516 -0.015386497 0.027430108 0.012005887 0.08591105
0.033804752 -0.018874034 -0.0146372905 0.019238569 0.030382687 -0.029340345 0.00611039 -0.0046733925
-0.014577423

weight f4 [16, 17]
00000000: 9957 86bd b122 77be 3fb1 a83e 1f51 803e
00000010: fd79 123e 0b43 e93d 1945 34be ee07 81be
00000020: d54c 6e3c bb90 32be 302b b03e 7c4d c43d
00000030: 615b 833d 2d10 553d 4387 7dbe 681f b8bd
00000040: 8c5d babe 8a40 5ebe 6e6c 87bd ac29 b63d
00000050: f4bd 8ebe d83b 79be 0c55 983e 5def 883e
00000060: a9a2 a03d 2443 973e 86e4 c5be a431 863e
00000070: 7904 ff3d 38fa 083e 4416 193e 0093 4bbe
00000080: b957 0abe b8a6 14be 3572 b1be 3ed7 013d
00000090: 416a 4cbe 2447 fc3d ecb7 8b3e 2e7a 943d
000000a0: b093 743e acaf f8bd 5b63 a9be cf41 553e
000000b0: 3b8c 853e ba44 1b3c d16f 7f3d ce09 04be
000000c0: 90b2 1c3e a2de f33d 4beb 643e bce3 3bbe
000000d0: fd40 723e e93f 2f3e 0eab 9c3e 02e0 43be
000000e0: 338f 25bd 4be5 3cbe 8f5c 34bd d8fa 8ebd
000000f0: 5aa1 6ebe 3d86 11bd 7031 61be 1a9c 62be
00000100: 30df 4d3e f8ee 263d 891c 29be aa93 45be
00000110: fb73 89be 59aa ca3d 6b7f 7f3e 6dc1 3a3e
00000120: ed92 0d3e 0868 8fbe 5aff 9d3d 4255 61be
00000130: f565 513e 9504 a63e 3160 c23c 1713 1bbe
00000140: 1164 783e 18eb ac3c a7ce 523e 9039 aabe
00000150: 9ef1 853d b0ca 1dbe 41d8 c6bc a6e4 e1bd
00000160: 8463 96be 3e59 00be a834 a13d 2a6c 423e
00000170: 2d72 ee3d 6c46 823b 1cb7 35bb 2477 94be
00000180: bb20 40bc 6ae4 ac3e 7455 8cbc cecf 70be
00000190: 2f77 5f3d 5e48 07be bde4 13be d914 51be
000001a0: b0d7 0f3e a55a 44be 6121 c5bd 5e59 1bbd
000001b0: c684 853b 1a2b 30be f9f4 973e 747e 253e
000001c0: 7944 99be 4d2c 253d ed27 eb3d 0516 4b3e
000001d0: d37b 64bc 63b3 403d c047 c33d 9668 ad3e
000001e0: 5ab5 9d3e 6f70 58bd b15c a23e 0f43 823e
000001f0: 292c 28be 4aba acbe 8328 df3d f1b3 583e
00000200: ece1 343d 0b16 3abe 90d7 3a3e a591 30bc
00000210: 6f33 89bd 0f66 3c3d 5adf 83bd 6a37 fbbd
00000220: 8177 c83c bbb4 80be 6a15 323e c729 433d
00000230: 0b39 14be 826a 253e 29ee a6bd f1a1 253e
00000240: 10d8 25bd dde7 f63d aab0 c2bd 90d1 21be
00000250: 2197 4bbe 57c9 163e 6303 973e 5876 ac3d
00000260: f5ef 8e3e 39d8 cf3d a313 513e 2050 c33d
00000270: 951a d93d ebd5 b43d 9a1c e3bd e590 7d3d
00000280: b82c 8c3e 969d 7abd 5641 adbe 31f6 803e
00000290: 207d 7dbe 3d67 b8bd 882d ffbd 1634 6ebd
000002a0: ae24 73be 34c8 ee3d cdcc 4abe f4ef 0e3e
000002b0: bd2a 06be 9082 13be 4a9c 32be 8cc6 033e
000002c0: cc12 3d3c bb8a 2f3e dc4a 47be 39cb 28be
000002d0: 7d13 a3bd 63ea 55bd 50a0 b13e 9ccb 43be
000002e0: 9336 afbe aea9 bbbe 8e7f 243e 9d02 7e3d
000002f0: ac57 b6bd 5301 17be 12e9 d63d f49f 6cbe
00000300: 56cf 3d3d 3812 0e3e c86a 78be e107 0ebe
00000310: f3aa 163e aed3 66be 31e0 a0bd 4d03 6a3d
00000320: 5e35 49be 6336 38be e33a 353c 8fea 41bd
00000330: b214 683e 162a 413e d323 813c f1ea 5cbe
00000340: a76c 4dbd 9e00 2e3c 66e6 b4bd a723 803e
00000350: 7fbb ee3d 6d73 f43d 61db 39be 2068 82be
00000360: 0d3d 443e f7f8 6e3e 15a6 363e 47d5 c7bd
00000370: 31ad c3bd 9e0d 4d3e 5cfb 2ebe c32f d63d
00000380: ba2b dfbd 11bd 26be b6c7 6d3e 7d5c 4ebe
00000390: 5db8 66be 61d9 44bd 62cb 763c f702 a33d
000003a0: 3458 293e ffe1 4bbd d7fc ccbd 0696 d9bd
000003b0: 5506 7cbe 02af 9d3d 44a2 1fbe 7b0f 1dbe
000003c0: 1aa5 70bc d108 3a3e 24bb 5e3c 68b8 26be
000003d0: 9e3f 58be 827f 333d b577 76bd b0b8 2b3e
000003e0: 5e26 f43d 011f 58be b0fb 04be e525 543e
000003f0: ce55 2c3e c135 8d3e 72af f9bd 5f6e d1bd
-0.06559677 -0.24134327 0.32947728 0.2506189 0.14304347 0.113897406 -0.17604484 -0.25201362
0.014544685 -0.17438023 0.3440795 0.095850915 0.064139135 0.05201738 -0.2475863 -0.08990365
-0.36399496 -0.21704307 -0.06612478 0.08894667 -0.27879298 -0.24339235 0.29752386 0.2674512
0.07843525 0.29543412 -0.38650912 0.26209748 0.12452025 0.13376701 0.149499 -0.19880295
-0.13510026 -0.14516723 -0.34657446 0.03169941 -0.19962408 0.123182565 0.2728876 0.072498664
0.23884463 -0.12142882 -0.33083615 0.20825885 0.2608355 0.009476835 0.062362496 -0.12894365
0.15302491 0.11907698 0.22355382 -0.18348593 0.23657604 0.17114224 0.30599254 -0.19128421
-0.04041977 -0.18446843 -0.044033583 -0.069814384 -0.23303738 -0.03552841 -0.21991515 -0.2212986
0.2010467 0.040755242 -0.16514792 -0.1929461 -0.268463 0.098957725 0.2495095 0.18237849
0.13825579 -0.28009057 0.0771472 -0.2200518 0.2044905 0.3242537 0.023727508 -0.15144001
0.24256922 0.021108195 0.20586644 -0.33247042 0.065402254 -0.1540935 -0.02427304 -0.11029939
-0.293728 -0.12534043 0.078713715 0.18986574 0.11642871 0.00397568 -0.002772755 -0.28997147
-0.011726554 0.33768016 -0.017130591 -0.23516771 0.05455702 -0.132112 -0.14442725 -0.20418109
0.14047122 -0.19175203 -0.09625507 -0.037927024 0.0040746657 -0.17203942 0.29679087 0.1616152
-0.29935053 0.04032545 0.114822246 0.19832619 -0.013945538 0.047046077 0.095351696 0.33868855
0.30802423 -0.0528416 0.31711343 0.25441787 -0.16423096 -0.33735877 0.10896399 0.21162392
0.04416077 -0.18172471 0.18246293 -0.010776912 -0.06699263 0.04599577 -0.06439085 -0.12266429
0.024471046 -0.25137886 0.17390981 0.047647264 -0.14474885 0.16153911 -0.08150894 0.16175057
-0.040489256 0.12055943 -0.09506352 -0.15802598 -0.1988187 0.14725243 0.2949477 0.0842101
0.27917448 0.10148663 0.20417647 0.09536767 0.10600773 0.08829864 -0.1108944 0.06190576
0.27377868 -0.061185442 -0.3383891 0.2518783 -0.24754763 -0.09004066 -0.12459856 -0.05815514
-0.23744461 0.116592795 -0.19804688 0.13958722 -0.13102241 -0.14405274 -0.17442432 0.12868708
0.011540126 0.17142765 -0.1946215 -0.16483773 -0.079627015 -0.05222548 0.3469262 -0.1912064
-0.34221324 -0.36652893 0.16064283 0.06201421 -0.08903441 -0.14746599 0.104936734 -0.23107892
0.04634031 0.13874137 -0.24259484 -0.13870193 0.1471365 -0.22541687 -0.07855261 0.057132054
-0.19649264 -0.17989497 0.011061403 -0.047342833 0.22664145 0.18863711 0.015764153 -0.21573998
-0.050152447 0.010620264 -0.088330075 0.250272 0.11656856 0.11936078 -0.18150093 -0.25470066
0.19163914 0.2333716 0.17836793 -0.09757476 -0.09554518 0.20024726 -0.17088073 0.104583286
-0.10897012 -0.1628306 0.23220715 -0.20152469 -0.22531267 -0.04805887 0.015063139 0.0795955
0.16537553 -0.049776074 -0.10009163 -0.10624318 -0.2461179 0.07699396 -0.15589243 -0.15337937
-0.014687801 0.18167426 0.0135944225 -0.16281283 -0.21118018 0.043822773 -0.060172755 0.16769671
0.119213805 -0.21105577 -0.12986636 0.2071758 0.16829607 0.27580073 -0.12191667 -0.1022613

bias f4 [16]
00000000: 4bb8 403e b069 373e 9fa0 5abe 2937 d13d
00000010: db16 173e c3c6 e13d 7e61 05be 6fde c63d
00000020: fb2e 38bd 14d3 3ebe 2e91 27be c2d3 48be
00000030: eaa3 37be cc69 73bd 062d 05be 0f92 2fbe
0.18820302 0.1791141 -0.21350335 0.10215599 0.14754812 0.11024239 -0.13025472 0.097103946
-0.04496668 -0.18635207 -0.16363975 -0.19612029 -0.17933622 -0.059427068 -0.13005456 -0.1714556

weight f4 [10, 16]
00000000: 41f9 8c3d 9213 af3c e275 c3bc 74ae 3cbc
00000010: 157a 2c3d 387e edbd 08b1 17be 84ce 443e
00000020: 242d 053c 46f3 083d e360 ce3d 8ae5 3b3e
00000030: e48e 99bd 25cd 8cbe c481 a1bc a95e 2abe
00000040: 45df 923e 3a96 7ebd a36b 923e 1a88 94be
00000050: b23f a2be 0806 55be 31f6 1ebd 85e7 473e
00000060: 8cac 27be 0e4a 5abe 4785 0fbe 9939 6e3c
00000070: e3f6 bfbd 364d 133e 689c 6abd 1d02 09be
00000080: fe4d a2be 6e41 8fbd ad9f 2fbe 307d a33e
00000090: 0478 063d 276b 81be 60f6 bf3b 212b 1e3e
000000a0: 682c 723e 3e67 1fbe ef76 86be b569 b6bc
000000b0: 5471 353d e00a 31be 2762 efbc 5fd0 b5bd
000000c0: 1502 853d b2ca 9cbe 6457 883d e557 96be
000000d0: 988f 863e 64de 9bbe 442e 2abe 23a1 933e
000000e0: 9c50 38bd f308 9ebe ba87 20be 373d 353d
000000f0: 29aa 0a3e fede 3ebe 1484 78be 1304 083e
00000100: c8e1 a2be 60ae 21be d4ab 0ebd 494c 153e
00000110: c72b e4bd f3b3 7ebd 9efa 993d 4dd7 573e
00000120: acf0 903d 4814 5abd 5abb 16be 3b28 393e
00000130: 5b0e 8e3d 9172 453e b21d 8e3e 7faf 3d3e
00000140: d104 dcbd 0d30 b83e 3ed2 263e 29b0 b1be
00000150: e9e6 8a3e 4d72 47bd 367b 473e 7012 9fbe
00000160: 5202 563e 08cb 473d ffd4 2bbe d35a 16be
00000170: de38 e5bd b7f3 f5bd 770c bebe cd7c 29be
00000180: 1b4e c6bb 9bc3 5bbe c157 cbbd a1e7 163e
00000190: 4fda 67bd d8e2 37be 76fb 6bbe e517 6f3c
000001a0: 33f9 8d3d f474 e03d ce48 a63c 32c9 15be
000001b0: 925d 6a3e 9f88 eabb 3913 f83d 1099 11bd
000001c0: 7b29 873e 85ca da3c 6d83 453d 9f44 d83d
000001d0: 1cbd e0bc c868 c93e 9024 93bd 2133 4dbe
000001e0: a3f2 0f3d f4fa babe 5b7a b73e 419c 293d
000001f0: fbad 0a3e f783 c8bd 15a8 413e 4e05 423c
00000200: 2646 3d3e b099 a33e bc66 a1be bfee 39be
00000210: 47f3 c0be 192c 4ebe 3fc2 c1be b93a 27bd
00000220: c8f9 a33e 9418 a3bc 946d 5cbe 6988 c9bc
00000230: ef28 66bd bd74 8fbe 19ae 16be a8fe 50bd
00000240: 9e07 a73e f6c5 7d3e 609a 06bd f5c0 c9bc
00000250: 47d6 1abd 5b7e 953c 1b6a 303e 9ec3 2fbe
00000260: ebb8 97be 33d0 503e 34c8 f2bb 973b 79be
00000270: b366 6ebe feee bb3d 3ed1 01be 7cc8 463d
0.06883479 0.021371637 -0.023859922 -0.011516202 0.042108614 -0.1159634 -0.14813626 0.19219404
0.008128438 0.03343513 0.100770734 0.18349281 -0.07497957 -0.27500263 -0.019715197 -0.16637672
0.28685966 -0.062154986 0.28597745 -0.29010087 -0.3168922 -0.20803082 -0.038809005 0.19521911
-0.16374415 -0.21317312 -0.14015685 0.0145401 -0.09373262 0.14384922 -0.057278067 -0.13379712
-0.31700128 -0.069949016 -0.17150755 0.31931448 0.0328293 -0.25277063 0.0058582276 0.1544614
0.23649752 -0.15566728 -0.26262614 -0.022267202 0.04429753 -0.17289305 -0.029221607 -0.08877634
0.06494538 -0.30623394 0.066572934 -0.29363933 0.26281428 -0.30443108 -0.16619211 0.28833875
-0.04499875 -0.30866203 -0.15676776 0.044247832 0.13541473 -0.18639752 -0.24269134 0.13282804
-0.31812882 -0.15789175 -0.034831837 0.14579882 -0.11141162 -0.06218333 0.075185046 0.21078224
0.070771545 -0.053241998 -0.14719906 0.18081753 0.06936332 0.19281985 0.2775703 0.18523978
-0.10743106 0.3597416 0.16291139 -0.34704712 0.27129295 -0.04869299 0.19480595 -0.31068754
0.20899323 0.04877761 -0.1678047 -0.14683084 -0.11192487 -0.120093755 -0.37118885 -0.16551514
-0.0060517914 -0.21461336 -0.09928847 0.14736797 -0.05660468 -0.17957628 -0.23045143 0.014593099
0.069322966 0.10959807 0.020298388 -0.14627531 0.22887257 -0.0071574 0.121130414 -0.035546362
0.26398835 0.026707897 0.04822104 0.105599634 -0.027433924 0.39337754 -0.07184708 -0.20039035
0.035143506 -0.36519587 0.35835537 0.04140878 0.13542931 -0.09790795 0.18911774 0.011842085
0.18483791 0.31953192 -0.31523693 -0.1815748 -0.37685606 -0.2013401 -0.3784351 -0.040827487
0.32026505 -0.01990918 -0.21526176 -0.024601178 -0.05619138 -0.28018752 -0.1471485 -0.05102411
0.32623 0.24782547 -0.032862067 -0.024628142 -0.037802007 0.018248728 0.17227976 -0.17164466
-0.2963327 0.20391922 -0.00740912 -0.24339138 -0.23281364 0.091764435 -0.12677476 0.04853104

bias f4 [10]
00000000: 9324 66bd 2382 003e 04df fcbd 8ae2 29be
00000010: 31d0 7a3a cfae 5cbd 8b2a 333e 3cb5 92be
00000020: be9b 223e 3fde 1ebe
-0.056187224 0.12549643 -0.12347224 -0.16590324 0.0009567766 -0.053877648 0.17496698 -0.28653896
0.15879723 -0.15514468
