HW1/classification/CNN_fashionMNIST_30_epochs.pt (torch, 111047 bytes, 10 tensors)

weight f4 [3, 1, 6, 6]
0.15073 0.2391217 0.30379695 0.37884733 0.42338642 0.36807862 -0.046543896 0.09137665
0.33684462 0.34385008 0.42114785 0.17552054 -0.007357081 0.108682044 0.107594475 0.1783272
0.19142681 0.14082411 0.006178423 -0.05210667 0.16788061 -0.07092332 0.17065986 -0.060704153
0.08898821 0.18100333 0.18763684 0.20006871 0.10163628 0.20726663 0.22362225 0.029916888
0.13890612 0.053902682 0.2760301 0.2618533 0.057303943 -0.01341191 -0.23829319 -0.23960094
0.14859194 0.2610296 -0.18728362 -0.089914806 -0.10626482 -0.034336172 0.13561848 0.17362314
0.03688665 -0.2669901 0.021300452 -0.17489013 0.20824738 0.21247339 -0.013850137 -0.14460704
0.06877968 -0.2231745 0.12694854 0.18296346 0.062063217 0.046439983 -0.23734252 -0.16422808
0.17173094 0.15505183 -0.21090448 -0.11249625 0.07175515 -0.021483935 0.012986902 0.1485741
0.06587142 0.040515438 -0.016922966 -0.036674358 0.036083493 -0.001392454 0.17621587 -0.10288423
-0.10021564 -0.14017488 -0.11940163 -0.087172255 0.018771049 0.0719857 -0.06476845 0.12166075
-0.09096461 -0.11987627 0.07912365 0.15451586 0.017633567 -0.115722984 0.2006982 0.1798637
0.2614809 -0.055733815 -0.115341984 -0.13694374 0.076586224 0.10299437 -0.009491999 0.21046199
-0.1298495 -0.17441365 -0.12199479 -0.17508364
00000000: f758 1a3e 52dc 743e 468b 9b3e 47f8 c13e
00000010: 1bc6 d83e cd74 bc3e d0a4 3ebd ae23 bb3d
00000020: e676 ac3e 1e0d b03e b1a0 d73e a8bb 333e
00000030: ab13 f1bb b194 de3d 7e5a dc3d 689b 363e
00000040: 6405 443e 3234 103e 5e74 ca3b ce6d 55bd
00000050: e5e8 2b3e 3f40 91bd 75c1 2e3e eba4 78bd
00000060: 733f b63d f058 393e df23 403e d0de 4c3e
00000070: af26 d03d b43d 543e 3bfd 643e 4314 f53c
00000080: 683d 0e3e 0fc9 5c3d d153 8d3e a311 863e
00000090: 8ab7 6a3d a1bd 5bbc 2103 74be f359 75be
000000a0: 7c28 183e aca5 853e 47c7 3fbe 4125 b8bd
000000b0: 5fa1 d9bd 16a4 0cbd 92df 0a3e 44ca 313e
000000c0: 7516 173d edb2 88be 497e ae3c 6616 33be
000000d0: cd3e 553e a092 593e afeb 62bc de13 14be
000000e0: 5cdc 8c3d db87 64be ccfe 013e c65a 3b3e
000000f0: 0036 7e3d da37 3e3d eb09 73be 682b 28be
00000100: 3cda 2f3e e8c5 1e3e 58f7 57be 6f64 e6bd
00000110: 5df4 923d 14ff afbc 04c7 543c cf23 183e
00000120: 98e7 863d 84f3 253d 08a2 8abc da37 16bd
00000130: 49cc 133d 0183 b6ba ef71 343e f8b4 d2bd
00000140: dc3d cdbd 018a 0fbe d788 f4bd 5e87 b2bd
00000150: bec5 993c 3d6d 933d 52a5 84bd 4529 f93d
00000160: a74b babd b181 f5bd 950b a23d 6839 1e3e
00000170: 4574 903c 2c00 edbd d483 4d3e 312e 383e
00000180: d3e0 853e 2449 64bd 6b38 ecbd fb3a 0cbe
00000190: 3dd9 9c3d b6ee d23d 5484 1bbc 5983 573e
000001a0: 44f7 04be 7e99 32be 68d8 f9bd 2049 33be

bias f4 [3]
-0.1488751 0.13688086 0.20577121
00000000: b772 18be 7f2a 0c3e b0b5 523e

weight f4 [4, 3, 3, 3]
0.111039795 0.16352025 0.12154854 0.16179088 0.16270326 0.17026535 0.20306398 0.04006714
0.17664869 -0.27244052 -0.24915953 -0.24362326 -0.1424101 -0.041112583 0.038618907 -0.18222399
-0.1830452 -0.09441412 -0.042366255 -0.28480804 -0.26364678 -0.16070539 -0.25639445 -0.30788094
-0.04879021 -0.04369919 -0.13666396 0.213242 -0.12780273 -0.2281706 -0.12888171 -0.14288737
-0.19865328 0.08163396 -0.040679395 -0.08327153 -0.003490032 -0.02435722 0.21348181 -0.18284343
0.011508781 0.065001294 0.05312457 0.1536563 0.33393767 0.13285208 0.37249675 0.11716719
0.2822432 0.28523177 0.1182833 0.19114019 0.23455109 0.2856627 -0.21898854 -0.0076862765
0.10689848 -0.18128404 0.04896219 0.16981639 -0.094850995 0.1236661 0.08587572 0.26949045
0.20374782 0.40926078 0.10386788 0.43128824 0.14703777 0.33537227 0.48139298 0.4097983
0.08588692 -0.1326033 0.069475204 0.14106242 0.06940254 -0.24022768 -0.009118728 0.08553167
-0.18113314 0.07562441 0.017594762 0.20841186 0.13407315 -0.114342295 0.06382908 -0.08960321
-0.20869116 -0.16772912 0.11598509 0.0765612 0.11192763 0.14893852 -0.15606828 0.13397275
-0.00564607 -0.09427089 -0.14596443 0.28789988 0.35973576 0.18488663 0.30571952 0.09786463
0.37172303 0.36619505 0.4488877 0.3806033
00000000: d568 e33d da71 273e 71ee f83d 82ac 253e
00000010: af9b 263e 0a5a 2e3e 01f0 4f3e 711d 243d
00000020: 65e3 343e 537d 8bbe ad23 7fbe 6078 79be
00000030: f4d3 11be ab65 28bd dc2e 1e3d ed98 3abe
00000040: 3370 3bbe 315c c1bd 3d88 2dbd 5cd2 91be
00000050: b6fc 86be f48f 24be 2246 83be 92a2 9dbe
00000060: 3ed8 47bd ecfd 32bd a3f1 0bbe 1c5c 5a3e
00000070: b8de 02be 8ea5 69be 91f9 03be 1151 12be
00000080: c46b 4bbe b52f a73d 709f 26bd 448a aabd
00000090: 05b9 64bb cb88 c7bc fa9a 5a3e 4f3b 3bbe
000000a0: 548f 3c3c 661f 853d 2699 593d 1458 1d3e
000000b0: e1f9 aa3e 600a 083e e5b7 be3e 5af5 ef3d
000000c0: 2e82 903e e609 923e 843e f23d 41ba 433e
000000d0: 292e 703e 6242 923e 883e 60be 29dd fbbb
000000e0: 97ed da3d 86a2 39be 948c 483d 59e4 2d3e
000000f0: 3d41 c2bd a744 fd3d 9cdf af3d a7fa 893e
00000100: 45a3 503e a18a d13e afb8 d43d d0d1 dc3e
00000110: 1291 163e eab5 ab3e 2479 f63e 15d1 d13e
00000120: 7be5 af3d 29c9 07be 0449 8e3d ab72 103e
00000130: eb22 8e3d 3ffe 75be b866 15bc 3a2b af3d
00000140: f77a 39be f8e0 9a3d e422 903c eb69 553e
00000150: 794a 093e 4b2c eabd d2b8 823d e381 b7bd
00000160: 23b3 55be 2fc1 2bbe 9789 ed3d 1ecc 9c3d
00000170: 503a e53d 5783 183e 5dd0 1fbe 2730 093e
00000180: ab02 b9bb 1911 c1bd b377 15be 9d67 933e
00000190: 492f b83e ec52 3d3e 4587 9c3e 406d c83d
000001a0: 7b52 be3e eb7d bb3e 9cd4 e53e 70de c23e

bias f4 [4]
0.12096987 0.2701343 -0.13592789 0.15225808
00000000: 0dbf f73d 0b4f 8a3e ae30 0bbe 8be9 1b3e

weight f4 [17, 1444]
0.02733054 0.013981888 0.018311426 0.047888625 0.03277783 0.0010696976 0.038141496 0.0018627736
-0.00941503 0.021157997 -0.0128140915 -0.022249551 -0.019270277 0.010605177 -0.0008983201 -0.018307975
-0.010117855 0.003321008 0.033301935 0.04685858 0.054422367 0.023258941 0.025363136 0.06347648
0.05589402 0.013601147 0.0018995267 0.013757629 0.025352513 0.017827177 -0.029568488 -0.012411764
-0.022535391 -0.008272313 -0.023287546 -0.012573533 0.021907408 0.029036088 0.069380574 0.046758797
0.04707328 0.07524783 0.03104824 0.061531052 0.04164266 0.0411164 0.041153714 0.018374315
0.0044594747 -0.007647421 -0.021234548 -0.021434868 -0.008194075 -0.012717139 -0.0055818018 0.030112665
-0.006405393 0.042142287 0.047838982 0.08894592 0.092755266 0.059509903 0.06569263 0.05170644
0.009826514 0.030682031 0.022120351 0.0010180888 0.00017241949 0.0019685682 -0.00312161 -0.019530222
-0.012513343 0.010248344 -0.005151466 0.014112956 0.09043595 0.052885216 0.106523074 0.069215566
0.07561855 0.06408655 0.07681112 0.048603576 0.019706368 -0.0075167664 0.0068316036 -0.00981279
-0.0075756973 -0.03442428 -0.020607457 -0.017703699 0.012879985 -0.0056884056 -0.012044681 0.0931769
0.05637742 0.09113424 0.06528761 0.07194636 0.062407576 0.043185994 0.051600132 0.025885047
0.027646877 -0.026684098 -0.015495392 -0.03976763 -0.048853055 -0.027148116 -0.00914927 -0.033165302
-0.027262159 -0.0377377 0.08611121 0.06913744 0.07261707 0.075243555 0.09262405 0.07769405
0.07901564 0.046744674 0.015216454 0.0037007497 -0.006581275 -0.03946593 -0.05653306 -0.059363935
-0.019182518 -0.043836374 -0.05289456 -0.021867748 -0.03210275 0.07806081 0.07776012 0.0802396
0.108439475 0.07641464 0.08901741 0.08016986 0.04520806 0.015500301 0.004817858 -0.06582717
-0.061401207 -0.09357593 -0.04628756 -0.06314 -0.020466063 -0.05573048 -0.021809591 -0.028262693
0.06598969 0.05908563 0.09049581 0.10784171 0.07328623 0.066953085 0.029134259 0.022612603
-0.008893738 -0.011743214 -0.04997975 -0.071974516 -0.056096368 -0.07265936 -0.08188739 -0.033945978
-0.023478022 -0.0761424 -0.04598161 0.042352695 0.03973397 0.09508245 0.10154542 0.054685973
0.067396015 0.012159787 0.024059156 -0.000725336 -0.06049363 -0.06319424 -0.059739843 -0.052605063
-0.087697454 -0.08645383 -0.05844478 -0.065696485 -0.047118697 -0.07312933 0.03306558 0.05621289
0.07487922 0.06433874 0.034992654 0.05423329 0.0019680937 -0.011768654 -0.012949381 -0.03466024
-0.04840205 -0.06858467 -0.048440304 -0.08427273 -0.06365209 -0.050993845 -0.07450525 -0.046448454
-0.1016103 0.030119482 0.029518953 0.042745132 0.06110749 0.07473713 0.06605985 0.0127768805
-0.0030938247 -0.0026798742 -0.038880344 -0.058792587 -0.06519968 -0.083960615 -0.060017038 -0.05185519
-0.0654224 -0.079575345 -0.068462625 -0.099052705 0.024357783 0.046271894 0.025554227 0.04489549
0.062322937 0.03181146 0.01946239 0.018849038 0.008684761 -0.041040033 -0.038445823 -0.06353582
-0.03118955 -0.038748678 -0.032486703 -0.03761878 -0.05098868 -0.03249316 -0.055566497 0.013104984
0.037105374 0.06886493 0.062190764 0.046421114 0.039517913 0.07461492 0.026793808 -0.009408932
00000000: 4ce4 df3c 4a14 653c d801 963c dd26 443d
00000010: 0c42 063d 1835 8c3a 423a 1c3d 4f28 f43a
00000020: 7f41 1abc 8953 ad3c 32f2 51bc b144 b6bc
00000030: b3dc 9dbc 56c1 2d3c 3e7d 6bba 9bfa 95bc
00000040: 5cc5 25bc 45a5 593b 9c67 083d c8ee 3f3d
00000050: fde9 5e3d 8989 be3c 5ac6 cf3c f5ff 813d
00000060: 21f1 643d 58d7 5e3c 8af9 f83a ae67 613c
00000070: 13b0 cf3c 4d0a 923c 9d39 f2bc b65a 4bbc
00000080: 249c b8bc 9888 07bc 86c5 bebc 3801 4ebc
00000090: 2a77 b33c 17dd ed3c 6717 8e3d 2786 3f3d
000000a0: e9cf 403d 891b 9a3d e158 fe3c fc07 7c3d
000000b0: 7e91 2a3d ac69 283d cc90 283d bb85 963c
000000c0: c920 923b 3897 fabb 13f4 adbc 2d98 afbc
000000d0: 7140 06bc 8c5b 50bc 8ce7 b6bb d6ae f63c
000000e0: 55e4 d1bb 649d 2c3d cff2 433d 4729 b63d
000000f0: 79f6 bd3d a8c0 733d dc89 863d 22ca 533d
00000100: 63ff 203c e258 fb3c bd35 b53c 6471 853a
00000110: 81cb 3439 1803 013b ed93 4cbb d8fd 9fbc
00000120: c404 4dbc ace8 273c a1cd a8bb 073a 673c
00000130: 7c36 b93d 2b9e 583d c528 da3d e4c0 8d3d
00000140: e6dd 9a3d cf3f 833d 264f 9d3d 8b14 473d
00000150: 406f a13c 354f f6bb a5db df3b d3c5 20bc
00000160: 8e3d f8bb 7900 0dbd f8d0 a8bc 5907 91bc
00000170: 9306 533c ce65 babb 0e57 45bc 88d3 be3d
00000180: 02ec 663d 97a4 ba3d 83b5 853d 9d58 933d
00000190: 169f 7f3d cce3 303d a95a 533d e10c d43c
000001a0: b47b e23c 9c98 dabc 62e0 7dbc 62e3 22bd
000001b0: 241a 48bd ba65 debc d2e6 15bc 57d8 07bd
000001c0: e454 dfbc d992 1abd 135b b03d ee97 8d3d
000001d0: 42b8 943d 4b19 9a3d aeb1 bd3d 0f1e 9f3d
000001e0: f4d2 a13d 5877 3f3d 6f4e 793c 4788 723b
000001f0: bca7 d7bb 07a7 21bd 368f 67bd 9927 73bd
00000200: a824 9dbc c58d 33bd f7a7 58bd fe23 b3bc
00000210: 2c7e 03bd 59de 9f3d b340 9f3d a954 a43d
00000220: 8415 de3d 477f 9c3d c34e b63d 1830 a43d
00000230: 162c 393d f9f4 7d3c 1fdf 9d3b 65d0 86bd
00000240: d57f 7bbd bda4 bfbd 0698 3dbd 8b4f 81bd
00000250: 72a8 a7bc a545 64bd 07aa b2bc 2a87 e7bc
00000260: 9a25 873d c603 723d de55 b93d 1ddc dc3d
00000270: 1717 963d b31e 893d f8aa ee3c 113e b93c
00000280: 0ab7 11bc 9c66 40bc 91b7 4cbd 6067 93bd
00000290: 4ec5 65bd 6ece 94bd 93b4 a7bd f00a 0bbd
000002a0: fb54 c0bc 8cf0 9bbd 3657 3cbd 057a 2d3d
000002b0: 16c0 223d 96ba c23d 0cf7 cf3d 66fe 5f3d
000002c0: ec06 8a3d d839 473c b517 c53c 7a24 3eba
000002d0: 2bc8 77bd fb6b 81bd c4b1 74bd 6878 57bd
000002e0: b99a b3bd b50e b1bd cb63 6fbd e18b 86bd
000002f0: 89ff 40bd d5c4 95bd c66f 073d 7d3f 663d
00000300: 475a 993d 08c4 833d 7554 0f3d ba23 5e3d
00000310: 22fb 003b 50d1 40bc a429 54bc e5f7 0dbd
00000320: 3a41 46bd 1f76 8cbd 5769 46bd 2e97 acbd
00000330: 075c 82bd ecde 50bd 3596 98bd bc40 3ebd
00000340: 1019 d0bd 22bd f63c bbd1 f13c 8515 2f3d
00000350: d94b 7a3d c80f 993d 634a 873d 1f56 513c
00000360: c4c1 4abb d4a0 2fbb ff40 1fbd 7fd0 70bd
00000370: 6987 85bd 8bf3 abbd 6dd4 75bd 1c66 54bd
00000380: 2efc 85bd 66f8 a2bd 2236 8cbd 25dc cabd
00000390: f989 c73c 9987 3d3d 1957 d13c 55e4 373d
000003a0: 5646 7f3d bc4c 023d 976f 9f3c 4c69 9a3c
000003b0: 874a 0e3c 9819 28bd 5e79 1dbd 111f 82bd
000003c0: 3a81 ffbc efb6 1ebd c710 05bd 2616 1abd
000003d0: 82d9 50bd 8c17 05bd b299 63bd 49b6 563c
000003e0: cefb 173d 0e09 8d3d bebb 7e3d 1124 3e3d
000003f0: 89dd 213d b5cf 983d b07e db3c ec27 1abc

bias f4 [17]
-0.015965227 0.064264715 -0.016283745 -0.036686756 -0.0039324216 0.029340524 -0.026761714 0.0008742375
0.018407661 0.0053314012 0.045442637 -0.028227888 -0.009426666 -0.00612186 0.008970721 0.025305055
-0.022695301
00000000: 82c9 82bc 389d 833d 7d65 85bc da44 16bd
00000010: 8bdb 80bb 8a5b f03c 623b dbbc 162d 653a
00000020: aacb 963c 09b3 ae3b 0f22 3a3d 2c3e e7bc
00000030: 4e72 1abc e299 c8bb eef9 123c 8c4c cf3c
00000040: 7feb b9bc

weight f4 [16, 17]
0.333117 -0.07583386 -0.0057602455 -0.20885786 -0.15189192 -0.052162144 0.14719394 0.21521747
-0.059059966 0.33475363 -0.24767946 -0.13813147 -0.20303257 0.18153638 0.34252983 -0.18408655
-0.066042624 -0.36467406 0.31130823 0.1458133 -0.37419537 -0.23651652 -0.13867742 -0.21241075
0.0076458044 -0.18640503 -0.07257591 0.21194732 0.013605161 0.09617989 0.2290689 -0.076400496
-0.0098983245 -0.37103063 0.03007188 -0.03958991 0.14283714 -0.1995893 0.20164888 0.11578304
0.24071552 0.1931926 0.19789807 -0.10892081 -0.10239238 -0.07167001 0.14263332 -0.19444633
-0.013454205 -0.11495114 -0.11054251 -0.2818696 0.210409 -0.21647155 0.23816667 0.35058188
0.1881363 -0.18971199 0.0599152 0.05998095 0.14305711 -0.0021818678 -0.18298385 0.006243566
0.1324453 0.0072004707 -0.36898473 -0.13430023 -0.17132646 -0.07775075 0.23476712 0.008285172
0.1886439 -0.10878888 -0.092432804 -0.12204216 0.010530677 -0.16205753 0.074729465 0.18166341
0.22043271 -0.2148139 0.20931792 0.14662425 -0.15521534 -0.102134876 -0.22723769 0.1879322
0.22053058 -0.26458356 0.024643077 -0.048247114 -0.20314454 0.08197891 0.35005155 -0.031477135
-0.02270641 0.24468377 -0.16891603 0.3348003 0.07673057 -0.06436056 0.08540374 -0.18550654
-0.12262225 0.29947278 -0.27365196 0.050123274 0.06495043 -0.08854633 0.07992666 0.099588804
-0.17526871 -0.19559841 0.096196875 0.080868065 0.086229645 0.2942443 -0.3886337 0.035465926
-0.25425455 0.16693005 -0.07361358 -0.2294043 0.26161504 0.066736646 -0.051422846 -0.02022056
0.24254927 -0.025645932 -0.2123377 0.05562526 0.2682634 0.17336723 0.33811015 -0.21870539
-0.088546954 -0.05122017 0.021049075 0.09073345 0.26409343 0.30841392 -0.16996102 -0.044768162
-0.029553272 0.12008233 -0.12772202 -0.14357811 0.07497006 -0.022851625 -0.1199453 -0.14392355
-0.11710729 0.1261062 0.0068432866 -0.0019079198 -0.16602139 0.050524652 -0.17440087 0.13155563
0.20591807 0.14498872 -0.20184909 -0.22155316 0.15192671 0.2887037 0.31988847 -0.08454091
-0.055943266 -0.4518039 0.14950468 -0.21133661 -0.16280009 0.121573314 -0.19895038 0.15110746
0.1534203 -0.1735927 -0.19130056 -0.12523289 0.11353266 0.10847709 -0.17245173 -0.036807887
-0.0073822644 0.14789557 0.006532069 -0.18152858 -0.001724311 0.12906432 -0.2526308 -0.13354062
0.3234177 -0.17722382 0.062405057 -0.21744533 0.18143964 0.32170776 0.15219696 -0.015355104
-0.10958631 0.10977033 0.30847266 -0.26295608 0.17005098 -0.044843096 0.08196173 -0.039452605
-0.022081047 -0.015688548 0.2236969 0.15129419 -0.30270854 -0.1032405 -0.02129537 -0.03524098
0.27486944 -0.34697562 -0.09581928 -0.16318302 -0.103172064 -0.22381876 0.26772 0.22001337
-0.1493146 -0.19660598 -0.07218943 -0.11645752 -0.16406754 -0.22138765 -0.1055638 -0.17569502
-0.23820525 0.19490074 0.20488514 -0.07273345 0.08810534 0.1716814 -0.06940163 0.10600286
-0.2389675 -0.036844745 0.10933864 0.042234004 -0.12508544 0.1810752 0.41388744 -0.28868422
-0.21993348 -0.026496455 0.21630475 0.07537587 0.26238006 -0.14761986 -0.04472052 0.0080253
00000000: 508e aa3e c84e 9bbd 71c0 bcbb d6de 55be
00000010: 8e89 1bbe f9a7 55bd 02ba 163e f861 5c3e
00000020: dde8 71bd d464 ab3e af9f 7dbe 5672 0dbe
00000030: c5e7 4fbe ace4 393e 1260 af3e 2f81 3cbe
00000040: 5b41 87bd 8fb6 babe cb63 9f3e 1550 153e
00000050: 8996 bfbe 6331 72be 7401 0ebe 3482 59be
00000060: a889 fa3b f6e0 3ebe aea2 94bd b808 593e
00000070: 2ee8 5e3c f6f9 c43d 0a91 6a3e dd77 9cbd
00000080: 952c 22bc baf7 bdbe 4e59 f63c 0829 22bd
00000090: e643 123e 2361 4cbe 0b7d 4e3e a91f ed3d
000000a0: 217e 763e 48d4 453e cba5 4a3e e011 dfbd
000000b0: 19b3 d1bd bac7 92bd 780e 123e f01c 47be
000000c0: 076f 5cbc 816b ebbd 1d64 e2bd 3651 90be
000000d0: 7575 573e b8aa 5dbe f7e1 733e 787f b33e
000000e0: cda6 403e dc43 42be a469 753d 96ae 753d
000000f0: 907d 123e abfd 0ebb 1e60 3bbe d496 cc3b
00000100: be9f 073e edf1 eb3b 91eb bcbe 0086 09be
00000110: 3470 2fbe c93b 9fbd cb66 703e 88be 073c
00000120: de2b 413e b4cc debd 694d bdbd 3df1 f9bd
00000130: dc88 2c3c 69f2 25be c30b 993d f905 3a3e
00000140: 1db9 613e 2df8 5bbe 7057 563e ab24 163e
00000150: c5f0 1ebe 172c d1bd ffb0 68be 4c71 403e
00000160: c5d2 613e 7f77 87be 47e0 c93c c49e 45bd
00000170: 1f05 50be 8fe4 a73d f539 b33e 2bee 00bd
00000180: cb02 babc 628e 7a3e 53f8 2cbe f26a ab3e
00000190: eb24 9d3d 78cf 83bd 28e8 ae3d 6df5 3dbe
000001a0: 6021 fbbd 7f54 993e 1c1c 8cbe 104e 4d3d
000001b0: bb04 853d c757 b5bd 97b0 a33d 37f5 cb3d
000001c0: a479 33be f34a 48be de02 c53d 289e a53d
000001d0: 2b99 b03d 30a7 963e fffa c6be b844 113d
000001e0: a72d 82be b6ef 2a3e b7c2 96bd f6e8 6abe
000001f0: 68f2 853e 39ad 883d c3a0 52bd 96a5 a5bc
00000200: d65e 783e 6b17 d2bc 0e6f 59be 50d7 633d
00000210: d259 893e 2e87 313e c61c ad3e 4ef4 5fbe
00000220: 1b58 b5bd 3ecc 51bd 1c6f ac3c 76d2 b93d
00000230: 4137 873e 6ee8 9d3e 430a 2ebe d25e 37bd
00000240: b419 f2bc baed f53d 90c9 02be 2406 13be
00000250: e789 993d 5533 bbbc e2a5 f5bd b260 13be
00000260: f2d5 efbd fc21 013e a63d e03b 2a13 faba
00000270: 8301 2abe f0f2 4e3d 2496 32be 85b6 063e
00000280: 30dc 523e ec77 143e 87b1 4ebe d5de 62be
00000290: ad92 1b3e f9d0 933e 6cc8 a33e c923 adbd
000002a0: c424 65bd d752 e7be c117 193e a068 58be
000002b0: 11b5 26be 6efb f83d a6b9 4bbe eabb 1a3e
000002c0: 361a 1d3e 49c2 31be 4be4 43be 0d3d 00be
000002d0: d083 e83d 3d29 de3d 3097 30be dec3 16bd
000002e0: ece6 f1bb f071 173e f70a d63b a1e2 39be
000002f0: 4702 e2ba 7029 043e d358 81be dfbe 08be
00000300: 0197 a53e 297a 35be 729c 7f3d fda9 5ebe
00000310: 50cb 393e e1b6 a43e 85d9 1b3e f993 7bbc
00000320: ca6e e0bd 44cf e03d 21f0 9d3e 2ea2 86be
00000330: d821 2e3e 65ad 37bd 8ddb a73d 0e99 21bd
00000340: 50e3 b4bc 4585 80bc cd10 653e ddec 1a3e
00000350: 9dfc 9abe c16f d3bd a173 aebc d958 10bd
00000360: b0bb 8c3e caa6 b1be e63c c4bd 7319 27be
00000370: e04b d3bd bf30 65be 9912 893e 2f4b 613e
00000380: ede5 18be 1453 49be 0dd8 93bd 4881 eebd
00000390: 5201 28be 72b3 62be d531 d8bd 65e9 33be
000003a0: 14ec 73be 0f94 473e 69cd 513e 46f5 94bd
000003b0: 9370 b43d 40cd 2f3e 7122 8ebd 0718 d93d
000003c0: e5b3 74be 84ea 16bd f0ec df3d 90fd 2c3d
000003d0: 6616 00be c76b 393e 0ee9 d33e 6bce 93be
000003e0: 3e36 61be 180f d9bc fe7e 5d3e aa5e 9a3d
000003f0: ae56 863e a929 17be dd2c 37bd 8c7c 033c

bias f4 [16]
0.3249084 0.3317783 -0.033307325 -0.006294236 0.17983995 0.17871915 0.10250307 -0.0060562016
0.24199225 0.19786744 -0.052979402 -0.118378155 -0.1556601 -0.015479889 -0.14089759 -0.1038465
00000000: 655a a63e d8de a93e 436d 08bd e13f cebb
00000010: f727 383e 2702 373e 21ed d13d 1a73 c6bb
00000020: d1cc 773e c39d 4a3e ee00 59bd 3f70 f2bd
00000030: 5c65 1fbe 5c9f 7dbc 7547 10be 79ad d4bd

weight f4 [10, 16]
-0.29841632 0.06352785 0.18827876 0.21249293 -0.4038276 -0.06922201 -0.3204718 -0.1480837
0.1992792 0.015733374 0.09123697 0.2648052 -0.1822561 -0.24125779 -0.10994339 0.14899327
-0.0014535065 0.06365884 0.032289065 -0.35151103 0.2356643 0.074911274 0.22917305 0.34042075
0.20933771 0.13406087 -0.12799911 0.25424448 0.2300377 -0.08102697 -0.31148034 0.22501703
-0.07467947 0.21719655 0.10382367 0.14063805 -0.08369402 -0.20527545 0.22633216 -0.38483024
-0.051639523 -0.3765863 0.09643856 -0.024181552 -0.28333595 0.119466424 0.1606431 -0.0573254
-0.039745633 0.07739998 -0.21462001 -0.16841541 -0.04021914 0.32471794 -0.44563147 0.14999957
-0.030583998 -0.21705432 -0.23671119 0.036488265 -0.3169628 -0.07780811 0.069142655 0.14759603
-0.082343005 0.2007636 -0.15469967 -0.0030459329 0.048485998 -0.11690438 -0.027530415 0.12318286
-0.32554957 -0.05103782 -0.111723796 0.036277674 0.24246998 0.12424982 -0.12154974 0.16089638
-0.17387857 -0.56229305 -0.14873284 0.2433908 -0.12073594 0.19118787 0.09700463 -0.16140372
0.387296 0.03506087 -0.17639561 -0.55319846 -0.22335008 -0.11503314 0.08334274 0.020412149
-0.26832336 0.18744978 -0.15389365 0.12961815 0.021112692 -0.1945579 0.090248175 -0.0736958
0.061794348 -0.05425396 -0.06084007 0.21948345 -0.18955912 -0.013071252 -0.16875508 0.10626572
0.13843323 -0.30729237 -0.13455571 -0.3027504 0.22055666 0.25808167 0.2352109 0.13898431
-0.3671265 0.12390819 -0.20674863 -0.40355986 0.023004556 0.27494922 0.14503397 0.0809774
-0.38151816 -0.21657073 -0.20631823 0.124797106 0.100370154 -0.16914211 -0.36893934 0.073208034
0.14025208 0.33401394 0.088987626 -0.1593573 -0.5902161 0.43598768 0.037825476 -0.19687003
0.38087606 -0.30634862 0.16641802 -0.08732814 0.31955212 -0.0009167168 -0.06394369 -0.23981003
-0.159664 0.096184835 0.015007028 -0.2324625 -0.10299176 -0.01943195 0.2592378 -0.11667974
00000000: 06ca 98be e41a 823d 26cc 403e bf97 593e
00000010: 7ec2 cebe 45c4 8dbd e114 a4be 41a3 17be
00000020: d90f 4c3e 47e3 803c 73da ba3d 8c94 873e
00000030: 58a1 3abe 480c 77be 002a e1bd b191 183e
00000040: 9683 beba 915f 823d 8a41 043d 41f9 b3be
00000050: fb51 713e 156b 993d 57ac 6a3e a14b ae3e
00000060: a05c 563e 4147 093e 3312 03be 552c 823e
00000070: 018f 6b3e 78f1 a5bd 5a7a 9fbe dd6a 663e
00000080: 8df1 98bd c668 5e3e 81a1 d43d 6c03 103e
00000090: c567 abbd ba33 52be 9ec3 673e 7808 c5be
000000a0: f783 53bd ebcf c0be 9481 c53d 6418 c6bc
000000b0: 6911 91be d0aa f43d a07f 243e 0ace 6abd
000000c0: 51cc 22bd e183 9e3d 59c5 5bbe 1775 2cbe
000000d0: d3bc 24bd 6e41 a63e cf29 e4be 7d99 193e
000000e0: 4b8b fabc 7d43 5ebe 6b64 72be b874 153d
000000f0: f348 a2be dc59 9fbd aa9a 8d3d 6a23 173e
00000100: 73a3 a8bd f994 4d3e 9769 1ebe 469e 47bb
00000110: 4199 463d 906b efbd 7787 e1bc 4c47 fc3d
00000120: 6fae a6be 080d 51bd 72cf e4bd e697 143d
00000130: 0d4a 783e b176 fe3d 12ef f8bd 05c2 243e
00000140: 390d 32be 70f2 0fbf 6c4d 18be 703b 793e
00000150: 6844 f7bd c1c6 433e 5daa c63d 0447 25be
00000160: a94b c63e fd9b 0f3d 0da1 34be 6a9e 0dbf
00000170: e2b5 64be 7f96 ebbd 99af aa3d 6137 a73c
00000180: ae61 89be d6f2 3f3e 4c96 1dbe 9fba 043e
00000190: 86f4 ac3c 303a 47be 09d4 b83d d3ed 96bd
000001a0: 121c 7d3d 6639 5ebd 7033 79bd 45c0 603e
000001b0: c91b 42be ce28 56bc 22ce 2cbe d8a1 d93d
000001c0: 71c1 0d3e 6d55 9dbe f9c8 09be 1a02 9bbe
000001d0: 9bd9 613e 4823 843e 20db 703e e751 0e3e
000001e0: 01f8 bbbe 94c3 fd3d eab5 53be 669f cebe
000001f0: 0d74 bc3c 25c6 8c3e c983 143e 7bd7 a53d
00000200: 5956 c3be b8c4 5dbe 1645 53be a095 ff3d
00000210: de8e cd3d 9733 2dbe 9ee5 bcbe 18ee 953d
00000220: 3e9e 0f3e e003 ab3e 253f b63d 8f2e 23be
00000230: 6718 17bf c739 df3e e3ee 1a3d 4c98 49be
00000240: 3002 c33e bad9 9cbe 7c69 2a3e 19d9 b2bd
00000250: 569c a33e d34f 70ba e9f4 82bd c390 75be
00000260: f67e 23be 8efc c43d 0ae0 753c a60a 6ebe
00000270: 58ed d2bd c12f 9fbc d1ba 843e caf5 eebd

bias f4 [10]
-0.18001547 -0.2515815 -0.19487001 0.07975501 -0.31555933 0.13046536 0.17106166 0.1881393
0.24753599 0.4201535
00000000: fa55 38be 4acf 80be 018c 47be 9856 a33d
00000010: fe90 a1be b698 053e ca2a 2f3e 97a7 403e
00000020: 137a 7d3e 5c1e d73e
